results/model_cluster0_run1750603751.pt (torch, 513242 bytes, 12 tensors)

lstm1.weight_ih_l0 f4 [512, 13]
000000 c2 85 b9 3e 3e cb be 3e 2b 18 8f be 63 76 88 bd
       0.36234862 0.37264436 -0.27948126 -0.066632055
000010 24 27 1e be a5 bb 91 3e e1 87 12 3f b3 33 f4 3e
       -0.15444618 0.28463474 0.57238585 0.47695693
000020 3b f5 56 3e 97 74 d2 3d db 07 fa 3c 3b 31 2c 3b
       0.20991985 0.10276144 0.030521324 0.002627446
000030 f5 41 11 bd 4e 9b 6e be fe b8 0f be 2e cd c3 be
       -0.035463292 -0.23301432 -0.14035413 -0.38242477
000040 3f 0c 25 be 7d ab 9c bc 9e 75 07 be c0 f5 05 bd
       -0.16117953 -0.01912474 -0.13228461 -0.03270507
000050 7e e9 0c be 28 72 9a be db 03 11 3e ab 10 18 bd
       -0.13760945 -0.3016522 0.14161627 -0.03712527
000060 29 73 17 3d e6 db 87 3c 57 47 cd be c1 36 7a be
       0.03697506 0.016584348 -0.4009349 -0.2443495
000070 c7 57 18 bd 36 6f 19 bd 23 1d 03 bd e4 a9 96 be
       -0.037193086 -0.037459575 -0.03201021 -0.2942649
000080 7c 13 c5 be 2b 43 79 be 52 46 85 be 30 7e cf be
       -0.38491428 -0.24342029 -0.26030213 -0.4052596
000090 33 90 85 bc 6c f8 a6 3c d7 80 f4 bc aa d6 ad bd
       -0.016304111 0.020382129 -0.029846592 -0.084882095
0000a0 4e 87 dc bd 28 8a 61 be 82 7b 59 bc a7 7b 96 bb
       -0.10767995 -0.22025359 -0.013274075 -0.004592377
0000b0 39 61 15 be a4 90 c0 3e 0c eb 3d 3c 71 78 4d 3e
       -0.14587869 0.37610352 0.011591684 0.20065476
0000c0 12 cc 96 bd 39 23 4c 3b 7c b8 ea bc 62 df 8f 3c
       -0.07363142 0.0031148924 -0.028652422 0.017562572
0000d0 c4 d1 1b be d1 e3 68 bd 4b 4e 19 3e ac bf 80 3e
       -0.15216738 -0.056857888 0.14971273 0.25146234
0000e0 dd b7 de bd 80 b5 a0 bc 6d e7 1c 3d a6 2b 39 3e
       -0.10874913 -0.019617796 0.038306642 0.18083057
0000f0 e6 64 7d bc 1c 67 d6 bc 38 93 06 3d cb 3d f0 3c
       -0.015465951 -0.026172213 0.032855242 0.02932634
000100 2a bd 54 3c f0 f7 21 be 77 91 c9 bd b5 84 1a 3e
       0.012984553 -0.15817237 -0.09842198 0.15089686
000110 98 09 06 be 8e 22 29 be c5 f2 c7 bc 41 39 b7 3d
       -0.13089597 -0.16517088 -0.024407754 0.08946467
000120 2d b8 c6 be 7d d6 1d bf 97 dc bd ba 24 cb a9 bb
       -0.3881239 -0.6165541 -0.0014485297 -0.005181687
000130 52 da 7b bc b4 ef 56 b9 cd 25 8d bb 85 67 f4 bb
       -0.015371876 -0.00020497927 -0.0043074847 -0.0074586296
000140 f6 92 d4 bd ec 8f 70 bd 0e b6 01 be 08 94 0e be
       -0.10379593 -0.058731005 -0.12667105 -0.13923657
000150 f4 ff c0 3e 17 49 22 3e 92 67 d7 3d 0e 8b 1d be
       0.37695277 0.15848194 0.10517801 -0.15385076
000160 76 a2 0d 3d 9e d2 3d 3c a9 f6 b2 bc 7d 7d ab be
       0.034578763 0.01158586 -0.021846132 -0.33494177
000170 20 75 02 bf d8 1c 87 3d 7d 9a f4 39 53 d5 3b be
       -0.5095997 0.065972984 0.0004665441 -0.18343095
000180 0e 7f e4 be f6 b0 00 bf 00 da 49 be cd 52 03 bf
       -0.44628185 -0.5027002 -0.19712067 -0.5129822
000190 04 ef 2f be a1 b7 9e 3c 70 7c 25 bb aa ff 96 3b
       -0.17181021 0.01937467 -0.0025251172 0.0046081143
0001a0 aa 93 71 3d 62 b5 db 3d a6 1c 1d be cb db d9 3d
       0.058978714 0.107279554 -0.1534296 0.10637625
0001b0 30 f7 c6 be 6a 45 cc 3d aa 2e e5 be e8 0e 90 bd
       -0.38860464 0.09974177 -0.44762164 -0.07034093
0001c0 6e 77 f5 be 47 22 df 3c 60 24 8d 3c 73 d2 a6 3c
       -0.4794268 0.027238024 0.017229259 0.020364022
0001d0 f8 ea ec bc d3 7b ad bc 92 3b 48 bb b1 a0 89 bd
       -0.028920636 -0.021177208 -0.0030553085 -0.067201026
0001e0 2f 8a 4b be 55 94 0e bf 7b 7a a0 3d 83 c9 c4 ba
       -0.19876932 -0.55695087 0.07835861 -0.0015013668
0001f0 bc dc ce bd c4 09 fc bb 97 6a e9 be 5b 3c 64 3c
       -0.101006955 -0.007691594 -0.45589134 0.0139304055
000200 ca 71 92 bc 8b d3 ce 3b 8e 10 04 be 86 07 15 be
       -0.017876524 0.006311839 -0.1289694 -0.14553651
000210 25 a8 55 bd 65 64 dd 3d 54 86 4f 3e 3b 6f ee bd
       -0.05216231 0.10810164 0.20266086 -0.11642309
000220 de f7 a7 3c 9e 96 2c 3e 45 73 f0 3d 7c fc c7 3c
       0.020503934 0.16854331 0.11740736 0.024412386
000230 fd b0 5a 3c 60 f3 94 bb 86 fd 1a bc fb 1d 8e be
       0.013347861 -0.004545614 -0.009459859 -0.27757248
000240 02 fb 9c be 8a 9c d5 3d 96 d3 cf bd 96 6c e1 bd
       -0.30660254 0.10430248 -0.10147779 -0.11007039
000250 75 0c ae be df b2 ea be a4 5d 9f be fd 0c d0 be
       -0.3399388 -0.45839593 -0.3112613 -0.4063491
000260 6d 77 03 bf 23 17 88 bc a1 66 d9 bc 1c 7c 17 3d
       -0.51354104 -0.016612595 -0.026538195 0.036983594
000270 7d ed fb be ee b7 e2 be 69 6b ce 3e 61 af 27 bd
       -0.49204627 -0.44280952 0.40316322 -0.04093874
000280 8a 87 17 be b7 e3 cc be ea e0 b7 be 12 95 5d be
       -0.14797798 -0.40017483 -0.35913783 -0.21638897
000290 ce c3 0a bf 5c 42 7d be 3f cb 03 3b 5b 57 2a bc
       -0.54205024 -0.24732345 0.0020110158 -0.010396804
0002a0 20 f3 de bc ec c8 a2 be ca 9f 9c be fc 6e 56 be
       -0.02721554 -0.31793916 -0.3059066 -0.20940775
0002b0 2b 0a 89 bd 8f 22 52 be 0c 21 81 be 37 bf 4e be
       -0.066913925 -0.20520996 -0.25220525 -0.2019013
0002c0 0c 16 14 3e 67 22 02 bc 67 2f 60 be 95 2f b0 bc
       0.14461535 -0.0079427725 -0.21893083 -0.021507064
0002d0 72 81 90 3c 75 0b 1d 3c e5 ef 58 bc f7 ae 07 bc
       0.01763985 0.009585251 -0.013240789 -0.008281461
0002e0 1f 64 32 be c1 e0 7d 3c df 7b b5 3c 69 64 1e bd
       -0.17421006 0.01549548 0.022153793 -0.038669977
0002f0 85 4f 47 3e f7 59 0d 3d 43 05 84 bf 0d 7a 5d be
       0.19463928 0.034509625 -1.0314106 -0.2162859
000300 83 2b cb b8 4b 50 88 bb 6b 93 d2 bb d1 ea ef 3d
       -9.687899e-05 -0.0041599623 -0.006426265 0.117147096
000310 97 cf 7f 3e 23 89 ab be 7f b7 36 be d5 30 6e 3d
       0.24981533 -0.33503065 -0.17843436 0.05815204
000320 d9 3a 97 3e c5 22 dc 3d b9 d5 49 bd fa 76 f6 bc
       0.29537085 0.10748819 -0.049276087 -0.03008603
000330 45 5e 97 3e d2 bf 16 3d 0e 53 d5 bb 15 fc 9f bb
       0.2956411 0.036804028 -0.006510145 -0.0048823454
000340 62 14 51 be 27 b2 9b 3c fb c6 18 3d 77 ce c7 bc
       -0.20417932 0.019005848 0.037299138 -0.024390442
000350 d9 b8 8e bd 25 29 94 bd c9 84 0e 3e 15 d1 60 be
       -0.06968851 -0.0723441 0.13917841 -0.21954758
000360 35 a9 87 3d 8d 37 9e bc 96 76 42 bc 88 09 6a bc
       0.066240706 -0.019313598 -0.011869093 -0.014284499
000370 4b ff 5c bc 8d 29 2c be 06 7f 00 be 32 97 23 be
       -0.013488601 -0.16812725 -0.12548456 -0.15975645
000380 a6 f2 a7 bc 5d 66 b1 3d a1 8e 08 be 60 d4 52 3e
       -0.020501446 0.08662102 -0.13335659 0.20588827
000390 87 4c 00 bf ff 62 9b 3e d7 6a 81 be 4a d3 8d 3c
       -0.5011677 0.30348966 -0.25276825 0.017312665
0003a0 07 74 61 3c 8b 41 ee 3c 4c 3e 45 be 79 bd 34 be
       0.013760573 0.029083988 -0.19262046 -0.17650403
0003b0 37 18 04 3d 8c a9 95 3e d8 03 0d 3e 0f d4 e2 bd
       0.032249656 0.29230917 0.13770998 -0.11075603
0003c0 66 fd c9 bd 70 70 b0 3d 18 78 56 be 85 2d 59 bf
       -0.09862785 0.08615196 -0.2094425 -0.8483508
0003d0 f4 33 8b bc 44 60 86 3c 1a dc 9a 3c ed 09 cc be
       -0.016992547 0.016403325 0.01890378 -0.39851323
0003e0 c8 c6 8f be aa 46 44 3d 8f c9 8e bd 9b 69 40 bd
       -0.28081346 0.047918953 -0.06972038 -0.046975713
0003f0 1e 6d 8f be e6 53 d5 be 86 d0 17 be d5 c7 cb be
       -0.28012937 -0.41665572 -0.14825639 -0.39800897

lstm1.weight_hh_l0 f4 [512, 128]
000000 c2 af 9b bd b3 e1 52 bd 3e 88 06 bd ca 2b 66 3e
       -0.076018825 -0.051484775 -0.032844774 0.22477642
000010 8d 7f 52 bc c5 f7 e4 bc e4 a9 4e 3e 51 61 96 3c
       -0.012847793 -0.027950177 0.20181996 0.018356951
000020 91 84 24 be 78 71 95 3d 0a ba c0 bc c3 3e 8c 3b
       -0.16066195 0.07297033 -0.02352621 0.0042799427
000030 af 28 d9 3a 97 10 c5 bd b8 5e 70 be c0 c9 79 be
       0.0016567911 -0.09622305 -0.23473632 -0.24393368
000040 6c b9 e4 3b 70 75 19 bb 62 8f ba be d7 7a 91 bc
       0.006980112 -0.0023415945 -0.36437517 -0.01775877
000050 53 69 2e 3a f5 f2 ed bb 5b 44 16 bd 03 e1 b6 bb
       0.0006653268 -0.0072616288 -0.036686283 -0.0055810227
000060 d1 a4 e5 3b 2d 4c 9f 3d 41 1d 8b 3e 50 a3 da 3c
       0.007008173 0.07778201 0.27170756 0.026689202
000070 00 d2 16 be 3f 19 4d 3e e0 36 d6 3b 2b 88 fc bd
       -0.14728546 0.20029162 0.0065373033 -0.123306595
000080 2a e5 50 bc aa 87 0d 3d ae bc c4 bc 93 29 6c 3c
       -0.0127499495 0.034553207 -0.02401575 0.014414209
000090 db a8 a5 bc 0f 61 35 3d a4 86 a9 3e 4c b8 01 3c
       -0.020222118 0.044282015 0.33110535 0.007917475
0000a0 a0 59 c4 be c2 bf 62 be ac 42 26 bc 6c be 26 be
       -0.38349628 -0.22143462 -0.010147732 -0.16283578
0000b0 5e 35 4b be 69 a5 8b 3e 0d f2 11 3d b3 3f a8 3d
       -0.19844577 0.27274635 0.03563123 0.08215275
0000c0 74 7b 37 bc 64 4b 51 3d e0 7f bd bd 3d 52 5b 3d
       -0.011198867 0.05109729 -0.09252906 0.053545225
0000d0 79 74 cd bd 8a 2c 16 be c4 ea b5 3e bb e3 95 3c
       -0.10031981 -0.14665428 0.35530674 0.018297067
0000e0 44 5f 8a bc c9 02 9a bd fa d4 83 be f1 d9 06 3e
       -0.01689113 -0.075200625 -0.25748426 0.13169076
0000f0 3e 54 0a be aa e4 86 bb e3 57 a5 bd cb 07 2d be
       -0.13508698 -0.0041166143 -0.08073404 -0.16897504
000100 3d a8 97 bd 4a 51 fc 3b 3a ca 57 be 27 36 26 3b
       -0.07405136 0.00770012 -0.21073237 0.0025361867
000110 56 2b 9c 3c f0 a2 92 3d 39 0a 1c be 05 fc b8 3c
       0.019063633 0.07159984 -0.15238275 0.02258111
000120 70 e0 8c 3e 08 2a bc 3e a2 6a b5 3e 9e f0 1a be
       0.27514982 0.36750817 0.35432917 -0.1513085
000130 6f ba 0e 3c 37 89 bc bd f3 27 db bb e9 38 c4 bd
       0.008711441 -0.09205859 -0.006688112 -0.09581167
000140 f5 74 e1 3c 87 52 90 bc 2c bc 45 3e 7d 45 60 3d
       0.02752159 -0.017617477 0.19310063 0.05475377
000150 48 3f 91 be b3 fb 80 3c 06 6e 08 3d d9 d8 1b bd
       -0.28368592 0.01574502 0.03330805 -0.0380486
000160 cd 09 a3 3c fe dc 15 3e e8 18 c6 be 10 e7 e3 3b
       0.019902134 0.14635083 -0.38690877 0.006955035
000170 d6 ee 64 3d a9 3a 53 3d a0 d9 a1 3c 38 7a cb bc
       0.055891834 0.051569615 0.019757092 -0.024838552
000180 8e 47 4c bd 76 3e c0 3c 5f 6f 7f 3d c2 e9 ee bd
       -0.049872927 0.023467284 0.06236207 -0.116656795
000190 46 25 21 3e 04 c9 5a 3e c7 1c 00 3d b8 74 2d bc
       0.15736875 0.21365744 0.031277444 -0.01058691
0001a0 ba 3c 9b 3d 1c 3d e0 bd 1d b3 0f be df cc 2a 3e
       0.07579942 -0.10949156 -0.1403317 0.16679715
0001b0 8d 94 6e 3d e3 62 8e bd 57 ba a9 bd 04 b4 27 bd
       0.058247138 -0.06952455 -0.08287495 -0.04094316
0001c0 87 de 56 bb 33 b9 c8 bb 0c 51 9c bc cc 49 b8 be
       -0.0032786445 -0.006125593 -0.019081615 -0.35993803
0001d0 e7 52 82 be 7d 61 88 be dd e3 1b 3e 2e a8 9a be
       -0.25453874 -0.26636878 0.15223642 -0.30206436
0001e0 0b a2 75 bc 58 2f 57 3e 80 4d 5c bd 4a fe 07 bd
       -0.014992247 0.21014154 -0.053784847 -0.033201493
0001f0 1c 79 e5 bd f5 62 38 3d 2b 70 1c 3c 9a 1d 76 bc
       -0.112047404 0.045016248 0.009548227 -0.015021706
000200 84 f9 4d bb c4 68 23 3d 7a 73 21 3d 9d 4f 46 be
       -0.003142924 0.039894834 0.039416768 -0.19366308
000210 76 fa 8b bd 2f 12 c4 3c 30 d2 8e be 7a 80 16 bd
       -0.06834881 0.023934452 -0.27894735 -0.03674362
000220 6e e3 e2 3d 7f 79 40 be d2 51 a8 bd 08 20 3e 3c
       0.11078535 -0.18796347 -0.08218731 0.0116043165
000230 1c ac 8b bc af 3c e7 3d f5 18 c6 3d a2 48 65 3d
       -0.017049842 0.11290871 0.09672729 0.05597747
000240 18 d4 11 3d 51 c0 17 bd 7f 32 90 3d ed 4b 15 bc
       0.03560266 -0.03704864 0.07040881 -0.00911234
000250 e7 01 43 3d 20 8e 8e bc bd 0b 42 3d 94 da 02 3c
       0.047609236 -0.017401755 0.047374476 0.007986683
000260 3a 7d a2 3c 6c be 0c 3e ff c9 38 be d4 f6 fd bd
       0.019835103 0.13744515 -0.18045805 -0.12400594
000270 a4 2f d2 bd 99 5b 69 bc 47 50 ee 3c fc 5a 0b bc
       -0.10262993 -0.01424303 0.029091014 -0.008505579
000280 e4 69 61 3d e7 f4 f7 bc 5a 3d 25 3a 68 92 a7 3c
       0.055032626 -0.030268146 0.00063033926 0.020455554
000290 c4 ac 01 be 10 e0 35 3d dd ab 0d 3e 47 54 7c 3d
       -0.12663561 0.044403136 0.13835092 0.06160381
0002a0 b0 02 ee 3d 7c 4c ba 3d 1b cc 5f 3b f2 a5 c8 3d
       0.11621606 0.090966195 0.0034148756 0.097972766
0002b0 50 83 16 3e 90 12 4e bd 2f 44 88 3c 2a b4 7b be
       0.14698529 -0.05031067 0.016634075 -0.24580446
0002c0 00 0a 77 3c 91 25 3b be b1 76 ac bc eb 00 37 3d
       0.015078068 -0.18276049 -0.02105269 0.04467861
0002d0 99 ea 70 3d 13 6c 4b 3e a6 4e 64 3e 07 8d aa bd
       0.05881748 0.19865446 0.22295627 -0.0832768
0002e0 d4 68 5e bc 67 2f c8 bc cb 1d 97 3e 9c 44 d9 bd
       -0.013574798 -0.024436666 0.29514918 -0.10608789
0002f0 2d 0c 0c 3e dc a2 bf 3c f1 e7 d3 39 8f db 71 3d
       0.1367652 0.023393087 0.00040417866 0.059047278
000300 98 05 4f 3e a9 7f 29 be 1b e9 74 3c e8 85 2a 3d
       0.20216978 -0.16552605 0.014948155 0.04163161
000310 8d 60 5d bd f9 f1 72 3c 4d 7b 43 3e b1 b2 16 bd
       -0.054047156 0.014828199 0.19090004 -0.036791507
000320 49 61 af be 61 09 7d be de 16 01 be 29 94 3d bd
       -0.3425391 -0.24710609 -0.1260638 -0.046283875
000330 e9 2f 87 3d a1 5f fa 3c 30 d0 c2 bc 2b 96 ce bd
       0.06600935 0.030563178 -0.023780912 -0.10087236
000340 6b 9b 86 bc 82 2f a9 3b 2e ce c3 3c fb 82 01 3b
       -0.016431531 0.005163134 0.023902025 0.0019761908
000350 b0 4a 0b 3e 7c 62 48 bd b6 2f 17 3d 8b 42 a6 3c
       0.1360271 -0.048922047 0.036910735 0.020295402
000360 6a 7e 14 bd 22 f4 a3 be 30 dd 81 3e 38 54 06 bd
       -0.03625337 -0.32022196 0.25364065 -0.03279516
000370 27 21 42 be b9 28 c2 bc 0b 87 72 bd ba 63 16 b9
       -0.18957959 -0.023701059 -0.05921082 -0.00014342266
000380 82 78 7a bc 84 fc c4 3c 08 f0 91 bd 72 71 ff 3c
       -0.01528752 0.02404619 -0.071258605 0.031182025
000390 83 d7 03 3d db 8e e1 bb 31 99 bd 3d 76 a3 d3 3c
       0.03218795 -0.006883485 0.092577346 0.02583478
0003a0 34 80 bb 3d 5d 41 e3 3d ee 30 87 bd 90 d7 e9 3d
       0.09155312 0.110964514 -0.066011295 0.114180684
0003b0 16 5a b5 3d 7a 33 9e 3d dc b5 cd 3d 9b 25 68 3d
       0.08855073 0.07724662 0.100444525 0.05667649
0003c0 b5 ba 9a 3c f4 d0 32 bc 85 f9 11 be ac b1 60 3d
       0.018887857 -0.010914076 -0.1425534 0.05485694
0003d0 be c3 a2 3d 20 09 a0 3e e5 25 b4 bd 36 58 83 bd
       0.07947491 0.31256962 -0.0879629 -0.06413309
0003e0 92 81 63 bc 99 46 14 be e9 70 a3 3d e5 cb e9 3c
       -0.013885872 -0.14480056 0.0798052 0.028539607
0003f0 09 e6 49 bd 94 29 2b bd 8c 6e 17 bd 00 8d e4 b9
       -0.049291644 -0.0417877 -0.03697066 -0.00043592602

lstm1.bias_ih_l0 f4 [512]
000000 5b 35 0f 3e 23 5b 26 be e2 68 0c bf 25 cf 14 be
       0.13985197 -0.16245703 -0.5484754 -0.14532144
000010 2c f9 38 be ad 5f 24 be db fa 89 bd 43 16 8b be
       -0.18063802 -0.16052122 -0.067373 -0.27165422
000020 87 45 19 3e ff ea 70 3d 17 ee 64 3d 37 65 99 be
       0.14967929 0.05881786 0.055891123 -0.29960033
000030 30 1b 95 be 9b 4e af be a5 ab a5 bd 33 97 29 3e
       -0.29122305 -0.3423966 -0.08089379 0.16561584
000040 c4 c6 29 be 47 b4 40 be 12 64 31 bd 9e e3 11 bf
       -0.1657973 -0.1881877 -0.043308325 -0.5698794
000050 d2 07 da be 91 92 ad be 4c 5c 23 be d9 12 cf 3d
       -0.4258409 -0.33900884 -0.15953177 0.10111017
000060 f9 f1 dc be c8 6c 2c be b8 37 b2 bd 2b 32 0f bf
       -0.4315336 -0.16838372 -0.08702034 -0.55935925
000070 e0 6f 82 be 27 c6 b7 3d 2b 37 14 bf 19 17 76 be
       -0.2547598 0.089733414 -0.5789668 -0.24032249
000080 a9 2e 1e be e6 5b c2 be cc 25 0b bf 4b 34 25 be
       -0.15447487 -0.37960738 -0.5435455 -0.1613323
000090 f7 01 42 be 57 a2 fc be 20 47 77 bc 62 00 e8 be
       -0.18946062 -0.49342605 -0.015092641 -0.45312792
0000a0 cf 8f 09 3d 93 85 32 bd 81 27 56 be d3 d7 b1 be
       0.033584412 -0.043584418 -0.20913507 -0.34734973
0000b0 d1 5b 9a be ac 09 63 bd 99 9a 90 be 5c b4 a3 3e
       -0.30148175 -0.055429146 -0.2824295 0.3197354
0000c0 be 34 da be 64 fc 84 bd 77 10 28 be 69 3f 81 be
       -0.42618364 -0.06493452 -0.16412531 -0.2524369
0000d0 a5 9f 80 be 7b c6 fa 3b bd 43 77 3d 88 c4 0c bf
       -0.251218 0.0076530552 0.060367335 -0.5498738
0000e0 3b c2 c0 be 19 c9 cb bd 0c 38 7e 3d 18 d6 04 bd
       -0.37648186 -0.09950466 0.06206517 -0.03243074
0000f0 e4 ab 14 be 4f c4 e9 be 5b 2e e0 be 4c 79 5a be
       -0.14518696 -0.45657584 -0.43785366 -0.21335334
000100 dc 61 f3 be b0 10 c2 bd 25 26 d0 be 5e e7 16 bf
       -0.47535598 -0.09475839 -0.40654102 -0.5894679
000110 ac 1b e7 be e2 51 9f be ab c7 06 be a8 85 0a bf
       -0.451383 -0.3111716 -0.13162105 -0.54110193
000120 5d b1 fe bb 2f 58 88 3d 2c e4 6a bb 7f 9b aa bd
       -0.007772608 0.06657445 -0.0035841567 -0.0833044
000130 2b 64 a0 be b9 e7 61 3d 27 8e 28 be 9b 2f c8 3e
       -0.31326422 0.05515263 -0.16460477 0.3909882
000140 e8 ea 14 bf 87 a0 00 bf ec 8f 00 3e 11 20 03 bf
       -0.5817094 -0.50244945 0.12554902 -0.51220804
000150 17 4a 99 3e b3 7f 01 bf a8 42 a8 be 23 11 96 bd
       0.2993934 -0.5058548 -0.32863355 -0.07327487
000160 ea ec 94 be d3 f0 0a 3e c4 6a e8 bd 03 00 8d be
       -0.29087 0.1356843 -0.11348489 -0.2753907
000170 46 a3 5b be 54 11 93 3c 25 79 04 bf 80 0c 11 bf
       -0.21449003 0.017952599 -0.5174735 -0.566597
000180 c5 68 49 be 92 c5 8e be 55 0a 02 bf cb 0b 8c 3e
       -0.19668873 -0.2788511 -0.50797015 0.27352747
000190 e9 eb 4e be 80 29 22 bc 7c a7 bd be b2 f2 f0 be
       -0.2020718 -0.00989759 -0.37041843 -0.47060162
0001a0 fd 25 e7 3d f7 aa 70 be 0d 6a 8f be 3f 0e b3 3d
       0.112865426 -0.23502718 -0.28010598 0.087429516
0001b0 35 9d 5d bd 0b 54 37 bd 30 c3 94 be dc ba bb bc
       -0.054105002 -0.044757884 -0.29055166 -0.02291625
0001c0 0a fc 09 bf 7a 0d ff be 73 2a e9 be 5b 1e ab be
       -0.53900206 -0.4981497 -0.455402 -0.33421597
0001d0 68 4c 04 be 59 4d d5 3d ec 69 91 3c e8 56 00 bd
       -0.12919772 0.104151435 0.017750703 -0.03133288
0001e0 38 93 aa be e8 a9 0c 3e 57 26 af bd ca 9c ad be
       -0.33315444 0.13736689 -0.085522346 -0.33908683
0001f0 d9 00 98 3c 1b d5 e4 be 17 b5 24 bf 21 8d d7 be
       0.018555092 -0.44693837 -0.6433882 -0.4209986
000200 56 bc 5c be 36 45 91 be af 54 93 be c0 a8 47 bd
       -0.2155622 -0.28373116 -0.28775546 -0.048744917
000210 0b 48 ab bc b4 b2 89 be 7b aa 1c bc af 72 5f be
       -0.020908376 -0.26894152 -0.00956213 -0.21821092
000220 8e ac c9 be 42 05 87 3e 21 48 c4 3d a2 45 f8 be
       -0.3938946 0.263712 0.0958407 -0.48490626
000230 b0 da bf be 40 7a 95 be 1a be 8b 3d e1 5d f5 bc
       -0.37471533 -0.29194832 0.06823368 -0.029951992
000240 43 71 c7 3c cb 22 bb bd c6 89 a4 3b 21 8f b0 be
       0.024346 -0.091374956 0.0050213067 -0.344842
000250 32 df bf be 9f 1f e8 be 5f ca a8 bd 33 ea a2 3d
       -0.37474972 -0.45336625 -0.08241724 0.07954826
000260 86 00 d2 be 96 06 b7 bd 8c 27 86 3d e2 9a 68 be
       -0.41016024 -0.08936803 0.06550512 -0.22715333
000270 72 f8 f3 bd 69 20 7b be e0 a7 96 be 8f 60 41 be
       -0.119126216 -0.24524082 -0.29424953 -0.1888449
000280 bc 40 a7 be e9 ee b8 be 89 81 98 be 64 f7 14 bf
       -0.32666576 -0.36119774 -0.29786327 -0.5818999
000290 be 3f bf be f0 e9 60 be f6 f9 cc 3c a3 b5 cb be
       -0.3735332 -0.2196424 0.025021534 -0.39787015
0002a0 89 f8 16 bc 28 64 26 be eb 85 91 be 67 b1 8e be
       -0.009214529 -0.16249144 -0.28422484 -0.27869722
0002b0 90 70 45 be a6 59 35 be 2c e3 b8 be c8 bb 01 3e
       -0.1928122 -0.1770998 -0.36110818 0.12669289
0002c0 ed 97 bc be 9d fa 1b bd 24 eb 8e be b0 2a ac be
       -0.3683466 -0.0380808 -0.27913773 -0.33626318
0002d0 c1 de a4 be 91 6b 55 bb 3a 2d 39 3e f4 0f 9e be
       -0.32201198 -0.0032565335 0.18083659 -0.30871546
0002e0 31 51 94 be b7 fa d9 be c8 1c e0 3d 50 a8 c8 be
       -0.28968194 -0.42574093 0.109429896 -0.39190912
0002f0 ef 2d fd bd 6b 79 85 be 3c 5b c2 be 52 76 03 be
       -0.12362277 -0.26069197 -0.3796023 -0.12838104
000300 1a ad 56 be f7 44 cc bd c2 a0 c3 bd 57 86 9a be
       -0.2096447 -0.099740915 -0.095521465 -0.30180618
000310 7a 87 8f be 79 4f 75 be ec 31 54 bd 7c cd 83 be
       -0.28033048 -0.23956098 -0.05180542 -0.2574271
000320 4d de 08 3b e0 88 25 3d 5f d2 9a bd 6e f2 32 bd
       0.0020884455 0.040413737 -0.07559656 -0.04368823
000330 53 69 ca be 40 55 a8 bd 2d d8 cf be a5 2e 26 3e
       -0.3953348 -0.08219385 -0.40594617 0.16228731
000340 1d c9 96 be 50 c9 d0 be c4 80 a5 be fa eb cd be
       -0.29450312 -0.4077859 -0.32324803 -0.40219098
000350 c0 c5 75 3d 4d ef db be 64 64 98 be 44 63 a3 bd
       0.060003042 -0.4295601 -0.29764092 -0.07977918
000360 0b 0d 06 bf 7c a0 11 3d 53 7a 39 3d 2c 5d 39 be
       -0.5236365 0.03555344 0.045282673 -0.18101948
000370 af 91 b6 bd 90 1c ea be 32 12 a7 be 53 e9 9e be
       -0.08914506 -0.45724916 -0.3263107 -0.31037387
000380 28 3a a1 be 5d aa 05 bf 1f 7a 92 be bf 31 e3 3c
       -0.31489682 -0.5221308 -0.28608796 0.027733682
000390 c6 14 1a 3d 49 78 77 3d bb fa d5 be 02 f1 a5 be
       0.037617467 0.060417447 -0.41792855 -0.32410437
0003a0 86 7b 86 bd 14 b4 1a be b6 c7 2f be d7 77 52 3e
       -0.06566529 -0.15107757 -0.17166027 0.20553528
0003b0 ba f2 04 bf 6d 99 e3 bc 74 aa 0a be f4 9f 9d be
       -0.5193287 -0.02778312 -0.13541585 -0.30786097
0003c0 43 10 a9 be b8 ca a4 be 0d 45 aa be 75 81 5d be
       -0.3302022 -0.32185912 -0.33255807 -0.21631415
0003d0 f5 5c 82 bd 6a 99 85 3d 68 b7 9b 3d 44 52 1c 3e
       -0.063653864 0.06523402 0.07603341 0.15265757
0003e0 a1 15 d5 be 09 7c e8 3d 31 c6 86 bd 41 7d be be
       -0.41618064 0.11351783 -0.06580771 -0.37204936
0003f0 8c 7a c9 be 48 83 79 be ef 0e 96 be be dc e4 be
       -0.39351308 -0.24366486 -0.29308268 -0.44699663

lstm1.bias_hh_l0 f4 [512]
000000 2e e5 3d 3e a4 5d 06 be 29 d1 0c bf ba 7e 52 be
       0.18544456 -0.13121659 -0.55006653 -0.20556155
000010 1a 0a 3a be 79 a2 3c be 87 20 be bd 91 01 8c be
       -0.18167916 -0.18421353 -0.09283548 -0.27344945
000020 21 13 47 3e 2b 94 12 3d b8 78 87 3d e6 d7 9d be
       0.19440891 0.035785835 0.06614822 -0.3082878
000030 be 92 a2 be cd 78 b5 be c6 17 de bd 2b 91 0e 3e
       -0.3175258 -0.35443726 -0.10844378 0.13922565
000040 b3 bd 04 be f0 47 30 be eb bb e9 bd 6a dd 0d bf
       -0.1296299 -0.17214942 -0.11412796 -0.55415976
000050 06 eb c0 be 46 6a ab be ea 10 15 be 8e 68 8e 3d
       -0.3767931 -0.33479518 -0.14557233 0.06953536
000060 81 49 e2 be 39 46 2e be 93 2d b5 bd ba 81 12 bf
       -0.44196704 -0.17018975 -0.08846583 -0.572292
000070 aa db 9a be 5c 7a af 3d 0f 63 18 bf a5 9b 5c be
       -0.30245715 0.0856826 -0.5952615 -0.21543749
000080 26 54 4b be be 40 a7 be 9a 5c 0a bf 2f 3c 18 be
       -0.19856319 -0.32666582 -0.5404755 -0.14866708
000090 2a 5f 1b be e1 99 ea be a9 0b e8 ba a9 a6 fb be
       -0.15173021 -0.45820525 -0.001770367 -0.4915059
0000a0 42 15 22 3d 6b 84 2d bd 56 4f 56 be 09 be c2 be
       0.039571054 -0.04236261 -0.20928702 -0.3803561
0000b0 e0 e9 b7 be 7e d6 95 bd 7c 0f 9f be 70 fd 97 3e
       -0.3592062 -0.07316302 -0.310665 0.29685545
0000c0 50 6a d9 be 21 f0 30 bd 38 24 f8 bd 93 56 56 be
       -0.42463923 -0.043197755 -0.12116283 -0.20931463
0000d0 18 22 8d be 13 13 58 bb 87 d5 59 3d 24 dc 04 bf
       -0.27565074 -0.0032970353 0.05318215 -0.5189841
0000e0 25 03 9d be 07 e8 e1 bd c8 09 cb 3d 47 8b 7e bd
       -0.30666462 -0.11030584 0.09913975 -0.062144544
0000f0 f6 a1 17 be 28 94 e4 be 08 61 fc be c5 c7 6a be
       -0.14807877 -0.44644284 -0.4929278 -0.22927769
000100 63 1e f5 be ee de 04 be 20 2a d0 be de a9 15 bf
       -0.47874746 -0.12975666 -0.4065714 -0.5846232
000110 e7 00 cb be 02 89 ad be 46 34 b6 bd fd 81 05 bf
       -0.39649126 -0.3389359 -0.08896689 -0.5215147
000120 ce e4 4a 3c 1f 15 a4 3c 02 f8 0c 3d c4 74 09 be
       0.012383653 0.020029603 0.034416206 -0.13423449
000130 ec e2 a4 be 00 4e d9 3c 77 6d 50 be 12 d7 bf 3e
       -0.32204378 0.026526451 -0.20354258 0.37468773
000140 d3 ed 18 bf 04 f0 e2 be ab a9 fa 3d 93 fd ea be
       -0.5973789 -0.44323742 0.12239393 -0.45896587
000150 75 e9 80 3e 77 06 e8 be 67 49 b5 be c9 4f 7f bd
       0.25178114 -0.45317432 -0.35407564 -0.06233195
000160 91 62 92 be 52 a9 db 3d 15 57 10 be 01 be 6f be
       -0.28590825 0.10725655 -0.14095719 -0.23412324
000170 ee af 86 be a3 ee 91 3c 53 50 11 bf fe 65 16 bf
       -0.263061 0.017813986 -0.5676319 -0.5874938
000180 db 45 6a be 24 24 95 be 3b d9 04 bf ef f6 60 3e
       -0.2287821 -0.29129136 -0.5189397 0.21969198
000190 9e 2d 23 be 99 03 0b bd e7 11 c0 be 22 0f 06 bf
       -0.1593537 -0.033938978 -0.37513658 -0.5236684
0001a0 4b 4e e8 3d 04 a2 3e be d0 99 8c be f8 48 7c 3d
       0.11343058 -0.18616492 -0.274611 0.061593026
0001b0 46 22 6c bd 1a 64 a4 bd 57 ae 8a be 28 00 7c bd
       -0.057649873 -0.08026905 -0.27086136 -0.061523587
0001c0 eb 12 12 bf 0f 1f fd be 69 be de be 72 79 b1 be
       -0.57060117 -0.49437758 -0.43504646 -0.34662968
0001d0 49 4f f1 bd 5f ea 63 3d f1 8e 78 ba c0 be ac bd
       -0.117827006 0.055643436 -0.0009481749 -0.0843482
0001e0 80 8d a7 be 1e d4 3b 3e a0 9c ec bd 44 37 ae be
       -0.32725143 0.18342635 -0.11553311 -0.3402654
0001f0 39 2a f7 bb d1 37 cb be b7 fb 1d bf dc fc d1 be
       -0.007542875 -0.39691022 -0.6171221 -0.4101323
000200 77 9f 7a be 5c 25 84 be 24 99 9b be 7b 81 32 bd
       -0.24474894 -0.25809753 -0.30390275 -0.043580513
000210 d7 54 7c bd 40 0b 83 be 25 3b 9c bb 17 07 70 be
       -0.061604347 -0.2559452 -0.0047677928 -0.23440205
000220 f3 95 ca be 8a 81 5c 3e 98 e0 cf 3d 54 1c db be
       -0.39567527 0.2153379 0.1015026 -0.4279505
000230 37 5e d1 be 3a ea 8d be 7e 64 24 3d e0 05 f2 bc
       -0.40892193 -0.27717763 0.0401349 -0.029543817
000240 71 0a 20 bc b2 21 97 bd 96 bc fe bc be f3 9c be
       -0.009768114 -0.07379474 -0.031095784 -0.3065471
000250 35 d8 cc be 11 46 00 bf 8f fc bc bd 38 73 8c 3d
       -0.40008703 -0.5010691 -0.09227859 0.06857914
000260 f9 62 cb be 73 2d db bd 70 61 7f 3c f4 74 84 be
       -0.39723948 -0.10702028 0.015587196 -0.25870478
000270 10 0e 8a bd c6 e5 7a be ab 24 9c be 1e 3e 2d be
       -0.067409635 -0.24501714 -0.30496725 -0.16918227
000280 d2 79 82 be 38 a5 bc be ea 09 96 be b2 90 10 bf
       -0.25483567 -0.36844802 -0.2930444 -0.5647079
000290 7e e2 b4 be 9d 3c 18 be 6b cf a4 3c 0d cc ce be
       -0.3532905 -0.14866872 0.020118436 -0.40390053
0002a0 12 a7 10 bd c1 22 1e be 98 fb 8d be 73 b2 95 be
       -0.03531558 -0.15442945 -0.27731013 -0.29237708
0002b0 a2 14 32 be 9b 14 35 be 9b 48 cd be b4 96 dc 3d
       -0.17390683 -0.17683642 -0.40094456 0.10770932
0002c0 b8 56 99 be 99 79 2f bd 00 00 88 be 22 21 90 be
       -0.29948974 -0.042840574 -0.265625 -0.28150278
0002d0 41 d4 a4 be 18 8a 64 bb d7 33 2c 3e 07 23 9c be
       -0.32193187 -0.003487235 0.1681665 -0.30495474
0002e0 77 76 a1 be e8 97 ea be 82 6a 05 3e c7 28 ce be
       -0.31535694 -0.4581902 0.13028911 -0.40265486
0002f0 87 41 00 be 68 47 82 be c6 fd bb be c1 16 2d be
       -0.12524997 -0.25445104 -0.3671705 -0.16903211
000300 e3 61 62 be 34 c0 e4 bd 5b 07 10 be 4d 4c 92 be
       -0.22107653 -0.11169472 -0.14065306 -0.28573838
000310 b6 ef a6 be fb 13 80 be 53 06 d0 bd 0e 87 8b be
       -0.3260476 -0.25015244 -0.10157456 -0.27251476
000320 80 eb 90 3c 8a 30 57 3d 63 b3 0a be ab 73 a5 bd
       0.01769042 0.052536525 -0.13544993 -0.080787025
000330 67 84 cd be 75 be aa bd a0 80 e2 be 09 45 fe 3d
       -0.40140077 -0.08337108 -0.44238758 0.12415511
000340 cc 9c 97 be 74 d8 c6 be ad ad 9f be b1 04 d3 be
       -0.29611814 -0.38837016 -0.31187192 -0.41214517
000350 c3 5f ab 3d da 5b d8 be a9 e2 8f be b9 98 82 bd
       0.083678745 -0.42257577 -0.28102615 -0.06376786
000360 b2 03 08 bf 63 d4 11 3d 4c b4 ae 3d 6f 07 77 be
       -0.5313064 0.03560294 0.08530483 -0.2412393
000370 e9 4e ed bd 9e e2 eb be 24 61 9d be 2e 68 9a be
       -0.115873165 -0.46071333 -0.30738175 -0.30157608
000380 28 4d a3 be 87 d3 04 bf 3f f2 75 be 29 26 e1 bb
       -0.31894803 -0.51885265 -0.24018191 -0.006871004
000390 48 e2 67 3d 0b ae 9d 3d a0 62 de be 55 1a af be
       0.056612283 0.07699212 -0.4343462 -0.34199777
0003a0 3b 91 0d bb a1 f0 e2 bd ba 68 53 be 09 d3 48 3e
       -0.0021601457 -0.110810526 -0.20645419 0.19611754
0003b0 c5 3a f2 be 0b 02 7e bc 2c 7e a8 bd 13 66 9c be
       -0.47310463 -0.015503417 -0.082271904 -0.30546626
0003c0 2f c7 9a be b6 ed ac be 87 40 b0 be 9e 04 44 be
       -0.3023009 -0.3377511 -0.3442423 -0.19142386
0003d0 11 62 ba bd 54 13 07 bc b0 71 af 3d f3 b0 b4 3d
       -0.09100736 -0.008244354 0.08566606 0.08822813
0003e0 c2 56 d4 be 82 00 ed 3d 93 b0 c0 bd af 47 cd be
       -0.4147244 0.115723625 -0.09408679 -0.40093753
0003f0 31 80 bf be cc 15 34 be c3 1c 91 be 45 92 ed be
       -0.3740249 -0.1758644 -0.28342256 -0.46400657

lstm2.weight_ih_l0 f4 [256, 128]
000000 91 ea b5 3c 7c ea 45 bd 36 31 81 bc 40 00 94 3d
       0.022206577 -0.048319325 -0.015770536 0.0722661
000010 e8 b4 da 3c 1a 66 67 3b 6b eb cb 3d da 30 a8 3c
       0.026697591 0.003530866 0.09957012 0.020531107
000020 0c 1e 56 3d 37 fb 11 3d 48 ea f0 bd 31 cf 74 bc
       0.05227475 0.035639968 -0.117634356 -0.014941976
000030 89 bb 81 bc 6d 37 1e 3d 5a ce d2 bd af 88 8a bc
       -0.015836494 0.038627077 -0.10293265 -0.016910879
000040 b5 5a 27 bd 7d 75 51 bd e9 f4 c2 bb 6a 4d 5d 3d
       -0.04085799 -0.051137436 -0.0059496057 0.054028906
000050 0c f7 b6 bd 67 8c 91 3d 7f 3a e8 bd 3c d4 13 bd
       -0.08933839 0.07106858 -0.11339282 -0.036091074
000060 c4 17 44 3c ff 2c 2a 3c 59 49 92 3d 4e 16 4f 3c
       0.011968557 0.0103867045 0.07142896 0.012639595
000070 0f 2e b5 3d cb 8c e7 3c 0b 52 4f bc 5d b7 d9 3c
       0.088466756 0.028265378 -0.012653838 0.026576692
000080 e4 60 95 bc 1a 1c a7 3c 5a f4 a5 bb 03 38 d6 3b
       -0.018234678 0.020399142 -0.0050645294 0.006537439
000090 04 5b 2e 3a 9b c6 03 bd c6 ea f4 3c 2f 55 a4 bd
       0.00066511356 -0.032171827 0.029897105 -0.0802406
0000a0 09 8a da bc 7a d3 54 3c 4b 0c 20 3d b3 a2 3a 3d
       -0.026677148 0.012989873 0.039074223 0.04556532
0000b0 99 b9 5b ba d7 d3 97 3d b2 ce 7d 3c 02 b9 0e bd
       -0.0008381843 0.07413452 0.0154911745 -0.034844406
0000c0 7a 2c 63 bd 7e 58 5d bc 14 9c 6d 3c d5 da 39 3d
       -0.055462338 -0.013509868 0.014502544 0.04537471
0000d0 95 d0 b3 bd 3e 44 99 bd a7 58 c7 bd 79 d3 94 3d
       -0.08780018 -0.07483719 -0.09733706 0.07266898
0000e0 34 52 cd bc 15 b7 68 3d 09 96 fe bd 7c 9c 3d 3d
       -0.025063612 0.056815226 -0.12430961 0.046291813
0000f0 7f 7a b2 bd e9 24 43 bd 44 29 c6 3d 01 3b f2 3c
       -0.087147705 -0.047642622 0.096758395 0.02956915
000100 f8 e9 fa bc f5 18 25 3b 66 ab 17 3d 8c d6 1a bd
       -0.030629143 0.0025191878 0.037028693 -0.037802264
000110 61 0d 74 3d 5d d0 6b 3d e7 fb 27 bd 44 62 80 bc
       0.05958307 0.057571758 -0.041011717 -0.015671857
000120 c3 b5 82 3d 39 25 16 3c 93 51 63 bc 47 55 9a bd
       0.063823245 0.009164148 -0.013874429 -0.075357966
000130 27 ea 88 bc 47 22 ee bc 57 b6 0b bd 71 ea 1f 3d
       -0.016713215 -0.02906908 -0.03410944 0.03904194
000140 63 6f cc 3c 82 16 c5 bb 77 bb 8b bd c1 fb 6f 3c
       0.024955457 -0.006014646 -0.068228655 0.014647425
000150 f7 3c 47 bd b1 0a d8 bb f3 fe d3 bb be 02 e0 bd
       -0.048642125 -0.0065930714 -0.0064696013 -0.10938023
000160 70 f5 1d bc c3 f5 2a 3d 33 32 bf ba eb e4 8c 3c
       -0.009641036 0.041738283 -0.0014587104 0.017199
000170 cd 8b bf 3d b3 6e 9e bd e5 40 7c bc 85 98 26 bc
       0.09352837 -0.07735958 -0.015396331 -0.010168199
000180 ea 32 9d 3c 01 3d 15 bd 58 48 60 3d 21 3d 3b 3d
       0.019189317 -0.03643513 0.054756492 0.045712594
000190 1a d9 24 3d f6 97 52 3d a6 97 83 bd 0d 30 f1 bc
       0.040246107 0.051414452 -0.06425409 -0.029441858
0001a0 63 53 5d 3d ac 02 f1 bd ec 9c cd bd e2 90 55 3d
       0.054034602 -0.11768088 -0.10039696 0.052140124
0001b0 e4 b3 66 bd 9b 3b 94 bd 1f 0a 81 bd 7e ff 2a bd
       -0.0563239 -0.07237931 -0.063007586 -0.041747563
0001c0 6b 80 e0 3c b7 a4 1c ba 09 50 d5 3d a4 7d f6 bc
       0.027404984 -0.0005975472 0.10415656 -0.030089207
0001d0 82 48 7f bc 44 1e 05 bd b2 3d e0 3c 9d 0d 04 3d
       -0.015581252 -0.032499567 0.027373169 0.032239545
0001e0 03 c6 93 3d 96 65 f2 3d 3a a1 91 39 b7 92 13 bd
       0.07215502 0.11835782 0.00027776678 -0.03602859
0001f0 0d 9a 9e 3c 5e 89 b5 3d 31 d2 72 3d cf 00 ba 3d
       0.019360567 0.08864091 0.059282485 0.090821855
000200 23 e6 0f 3d 41 6e 76 bd 8b ba 11 3d db 0b c8 3c
       0.035131585 -0.06016374 0.035578292 0.024419716
000210 dd 05 79 3d 31 83 8c 3d 16 18 8d 3e 5d 48 86 3d
       0.060796607 0.0686096 0.2755744 0.06556771
000220 ce f8 84 bc a9 ff 41 3e ec f7 a2 be 81 fb be 3c
       -0.01623192 0.18945183 -0.31829774 0.023313286
000230 28 65 a3 3d 87 b0 63 be 21 47 e6 bd 5f 0a ce bd
       0.079782784 -0.22235309 -0.112440355 -0.10060572
000240 ce 6a a7 bd ae af 87 bd a0 8b 55 bb a0 85 ac bc
       -0.08174668 -0.06625305 -0.0032584444 -0.021059811
000250 84 7c 9a bb d0 b2 52 3d f1 6b b7 bd d8 81 21 be
       -0.0047145505 0.05144006 -0.08956135 -0.15772188
000260 5b 5b a9 3c c8 c1 77 3b bc f6 72 bd cb f6 fe 3d
       0.020673444 0.0037804712 -0.059317335 0.12449416
000270 03 24 6b bd 22 3a 88 bd 2f c1 0c bd 6c 47 2c bb
       -0.05740739 -0.06651713 -0.03436392 -0.0026287688
000280 4f 13 b6 3c 80 d8 f6 bb d4 84 87 bd 42 42 d6 3b
       0.022226004 -0.007533133 -0.06617132 0.0065386603
000290 8a 71 2a 3d cb 22 9d 3c 3f 4c 55 3e 50 08 0f bc
       0.041612186 0.01918163 0.20829867 -0.008730009
0002a0 9f f7 71 3d 19 ca 70 3d d4 f0 cf bd 7b b5 7e be
       0.05907404 0.058786485 -0.10153356 -0.24873917
0002b0 8d 68 af bd 7b b5 8d bd 51 58 33 3e e9 81 b1 be
       -0.08564863 -0.0691938 0.17514159 -0.34669426
0002c0 5d b0 1a 3d af ac bd bc 7a 10 8a bc a6 de cc 3c
       0.03776585 -0.023153631 -0.01685356 0.02500851
0002d0 77 2a 64 3c 67 8e 8e 3c d1 10 12 be b9 8e 22 3d
       0.01392614 0.017401887 -0.14264227 0.039686892
0002e0 14 94 9a 3c e2 21 c0 3a 78 ef 61 be b1 bd 54 3e
       0.018869437 0.0014658535 -0.22064006 0.20775487
0002f0 0f 75 38 be 5a 14 8a bc ab 8c 6a bc f5 ad 6e bd
       -0.18013404 -0.016855408 -0.014315764 -0.058271367
000300 fc c7 d6 bd ae 8a d2 bc 59 8a 00 bf a1 b0 15 3c
       -0.10487363 -0.025700893 -0.502111 0.00913635
000310 f3 35 6a 3d 13 c2 40 3e 56 27 4d bd b0 e7 2b 3d
       0.057180356 0.18824033 -0.05008634 0.041969
000320 c0 88 3c be 86 06 71 bb ba bb 4b 3e 47 4c 95 bd
       -0.18411541 -0.003677757 0.19895831 -0.072899394
000330 1b 6c c7 3b a0 16 3a 3d da 06 2c bc 8a 32 ec bd
       0.006085885 0.045431733 -0.01049968 -0.11533077
000340 69 c3 32 3d d7 2c 04 bd 5f ce 4d bd ae 54 d9 bc
       0.04364339 -0.032269325 -0.05024564 -0.026529636
000350 86 78 e2 3d e7 31 51 3d 2c 90 a9 3c 6c cf f6 bc
       0.11058144 0.05107298 0.02069863 -0.030128203
000360 84 68 cf bb 5a 00 65 be 41 b6 7e 3e 7a e2 ef 3d
       -0.006329598 -0.22363415 0.24874212 0.11713119
000370 57 9a e8 3c ac 9b ad bc c4 3e 54 3e b3 89 3e 3c
       0.028393907 -0.021192394 0.20727068 0.01162951
000380 ee a9 5a bd 88 94 26 bd 10 42 c1 bb a0 11 05 be
       -0.053384714 -0.040668994 -0.005897768 -0.12995005
000390 c2 2b 12 3e 5e 29 13 3e a7 70 a2 bb 63 11 e3 bc
       0.14274505 0.14371249 -0.004957277 -0.027718252
0003a0 8a a5 7e 3e 89 17 7b be 0f 18 27 3d e3 3e 78 3d
       0.24867836 -0.24520697 0.04079443 0.06060685
0003b0 f6 cd 8b 3c 11 ca 20 be 2a df ab be 23 8b 6a bc
       0.017065983 -0.15702082 -0.33568698 -0.014315399
0003c0 f0 35 72 bd e3 02 06 3d 34 dc 77 3d 6b 70 bc 3d
       -0.05913347 0.032717597 0.060512736 0.092011295
0003d0 e6 6b 89 bc 87 d7 e2 3c 44 f7 e2 bd 59 f2 3d 3e
       -0.016775083 0.027690662 -0.110823184 0.1854948
0003e0 65 30 8b bc f7 d7 00 3e 5a 2d a1 be 67 97 49 3d
       -0.01699085 0.12582384 -0.31479913 0.049216654
0003f0 4d 0c 9f 3d ff 7d cf 3d 86 b5 04 3d 56 ac 0c 3b
       0.07766018 0.10131454 0.032399677 0.0021465025

lstm2.weight_hh_l0 f4 [256, 64]
000000 87 ca bb 3d 6b 61 c9 bc c7 6c 58 3c f1 56 6b 3c
       0.091694884 -0.024582585 0.013209528 0.01436399
000010 da fb 84 bc bd 5f 88 3d ad 06 70 3d e9 00 b6 3d
       -0.016233373 0.06658886 0.058600117 0.08886892
000020 e1 b8 15 bd 55 5d e5 bd ad d7 e7 3b f8 06 a8 bb
       -0.036553267 -0.11199442 0.007075271 -0.005127784
000030 bc 06 b5 bd ec 17 3f 3b 74 f4 8e bd af 6d 4a bd
       -0.08839175 0.0029158546 -0.069802195 -0.04942101
000040 28 77 c0 bd 8b c5 c3 bd 4f 74 39 3c 73 bb 20 3d
       -0.09397727 -0.09559163 0.011319234 0.039241266
000050 d7 4e cd 3d 8f 75 e1 bd b4 0c 85 3b b5 8b bc 3d
       0.10024803 -0.11008751 0.004060352 0.092063345
000060 c5 6a 3d 3e 07 44 08 bd d7 50 f7 bc c8 33 6e bd
       0.1849776 -0.033268 -0.030189915 -0.05815485
000070 0c 76 8e bd 7b 91 78 3d ea bc 5d 3d d9 4d ee 3d
       -0.069561094 0.060685616 0.05413524 0.11635942
000080 e5 5a 49 3e e4 be 04 bd 67 77 20 bd bd 90 56 bd
       0.1966358 -0.03240861 -0.03917637 -0.052384127
000090 20 5a d2 3c a2 58 3d 3e ea db 04 be 0b 5f ef bd
       0.02567774 0.18490842 -0.12974516 -0.1168805
0000a0 a4 b0 2f 3e 0a 82 ea 3d 50 5c 4e 3d dd 58 4c bd
       0.17157227 0.11450584 0.050381005 -0.049889434
0000b0 6f a2 ba 3d fb 2e ff bc ef 68 51 3c 35 b0 a6 3d
       0.09113013 -0.031150332 0.012781366 0.081390776
0000c0 86 45 d7 3d 3d 41 1f bc a4 e2 2d 3d 59 6b 65 3d
       0.105113074 -0.009720144 0.04245247 0.056010578
0000d0 9b ab d7 3d bf 77 bc 3b 9a 25 5d 3d e0 47 f5 3d
       0.10530778 0.0057515795 0.053990938 0.119766
0000e0 2b cb 43 bd 42 7b 95 bc 11 6b 55 3c cd 46 54 3d
       -0.047801178 -0.01824725 0.013026015 0.051825333
0000f0 88 25 34 3e 79 35 8b bd 83 1b c2 3c 06 de 05 bd
       0.17592442 -0.067973085 0.02369476 -0.03268244
000100 d1 cd 4a 3e 8a 34 9d 3d 0f 9b 0b 3c ab e9 b7 3d
       0.19805075 0.07676037 0.008520856 0.089801155
000110 44 2e 91 3d b7 17 16 3e 51 9a 33 3d 39 49 85 3d
       0.070889026 0.14657484 0.04384834 0.06508107
000120 ac 73 0a bd f8 ed d5 bd 73 87 14 3d e2 fb 0a bc
       -0.03380172 -0.104457796 0.036261987 -0.008482905
000130 77 14 bf be c2 31 34 3c 8c 01 d8 bb 22 77 87 3d
       -0.373203 0.010998191 -0.0065919813 0.0661452
000140 31 17 98 bd 3f dc 83 3c d1 9e 9c 3d 89 fc 37 3c
       -0.074262984 0.016096232 0.07647479 0.011229643
000150 6d 97 44 3e 3a d6 8f be 2b 65 0d bd 48 47 d0 3c
       0.1919839 -0.2809313 -0.03452031 0.025424615
000160 4e 6e 83 3d 79 eb e2 bc d2 3b 02 be aa ef ba bc
       0.06417523 -0.027700173 -0.12718132 -0.022819359
000170 98 2d 62 3c 58 c9 7e 3d eb 65 c2 3c 1e 8b 8c 3e
       0.013804816 0.062203735 0.023730239 0.27449888
000180 0e 5b 4f bd 8d 7d 5a bd 44 e1 09 be 8d 4f f7 bc
       -0.050623946 -0.05334239 -0.13464838 -0.0301893
000190 3a 57 fd bc a3 12 60 be c5 ad 51 bd 4f a6 db 3d
       -0.030925382 -0.2188211 -0.05119111 0.1072508
0001a0 15 8a 2c 3d 85 c9 ca 3d b2 67 ab bd 89 01 2a bd
       0.042123873 0.09901718 -0.08369388 -0.04150537
0001b0 fa e5 24 3d 1c 6e cd bd 23 e7 f4 bb 9e 4f bd 3d
       0.040258385 -0.10030767 -0.0074738427 0.092437014
0001c0 68 93 a7 bc 58 cc b2 3d 0a 5e 77 bc ea 59 b1 3c
       -0.020456031 0.08730382 -0.015098104 0.02164932
0001d0 ea d6 67 3b 93 05 5f 3a 07 e4 da 3d 5b 68 c8 3d
       0.0035375901 0.00085076055 0.10688024 0.09785529
0001e0 78 34 11 be 99 a5 d4 bc a9 92 60 bd 3b 40 ac 3c
       -0.14180171 -0.02595787 -0.054827366 0.021026721
0001f0 8a f0 c5 bd 1d 4c 26 3b a0 f0 16 bb 1b b1 a5 be
       -0.0966502 0.0025374957 -0.0023031607 -0.32361683
000200 46 91 bd 3d 27 ca fa bc 39 cf f5 3c 12 04 b2 3d
       0.09256224 -0.030613972 0.030006038 0.086921826
000210 f5 62 31 bd 0a 1a d0 3d 99 65 91 3d 76 48 36 3d
       -0.043307263 0.101612166 0.07099456 0.044502698
000220 66 0c 97 3c fc d6 53 bd 8b 87 f4 3d db 2f be bc
       0.01843853 -0.051718697 0.11939915 -0.023216179
000230 5a 91 aa be 07 23 18 bd 93 6a 1c bc 8d 50 07 3d
       -0.3331402 -0.03714278 -0.009546894 0.033035804
000240 df cf 76 bb 78 b2 d6 3b 31 da 8a 3d 00 42 b5 3c
       -0.0037660522 0.006552037 0.06779898 0.022126198
000250 53 ea f7 3d db a8 3f be 36 d9 42 bd 12 c2 31 3c
       0.12105241 -0.18716757 -0.04757043 0.010849493
000260 cd 7d 28 b9 61 57 2a bd be f6 d7 bc e4 58 8e 3d
       -0.00016068593 -0.041587237 -0.026362773 0.06950548
000270 f4 12 00 3d 1b 72 ff 3b fd 86 0f 3d 4f fc 4c 3e
       0.031268075 0.007795585 0.035040844 0.20018123
000280 c7 35 01 3d 3e 12 9c bc 3c d4 4a 3d a1 81 92 3c
       0.031545427 -0.019051667 0.04951881 0.017884078
000290 2f 18 59 bc 41 10 fa bd 7d 63 b7 3c 85 d9 81 3d
       -0.013250395 -0.122101314 0.022386307 0.06340317
0002a0 a8 fc 3b 3d 6f 89 9e 3d 1c d1 83 bc 85 f2 34 3b
       0.04589525 0.07741057 -0.016090922 0.0027610373
0002b0 75 92 61 bc 98 b8 f9 bd aa 0d 6b bd a8 66 31 bc
       -0.013767828 -0.121934116 -0.057386078 -0.010827698
0002c0 7e d5 6b 3d f1 9c 9c 3b 2a 7e e7 3c 19 76 fc bb
       0.05757665 0.004779451 0.028258402 -0.007704508
0002d0 da 58 5c 3d 3f 0c 72 3b 94 56 d5 3d fe 76 a3 3b
       0.053795673 0.0036933569 0.10416904 0.00498855
0002e0 e3 c5 02 be b2 e3 82 3d 36 22 be bd 0a ad b0 bc
       -0.127708 0.06391086 -0.09283869 -0.021566886
0002f0 9b 1d 59 bd 96 37 a5 3c 9d 71 86 bd 48 03 5f be
       -0.05300675 0.020168107 -0.06564639 -0.21778595
000300 01 f6 15 3e 1c 1c 40 3d b6 0c a3 3c db 4d 06 3e
       0.14644624 0.046901807 0.019903522 0.13115637
000310 db f6 1c bb d0 4d f2 3d 3f 36 a1 3d 8f ac 96 3d
       -0.0023950848 0.11831248 0.07871675 0.07357132
000320 80 06 e7 3c 74 01 28 be 82 0d 88 bd 15 6d 16 bd
       0.028201342 -0.16406804 -0.066432014 -0.036725122
000330 b8 c3 18 be d1 1c 4b 3d c4 de ad 3c 20 16 7e 3d
       -0.14918411 0.04958803 0.021224387 0.06203282
000340 1e 01 3f be c5 79 40 bc 92 6f 53 3c d8 3f c4 3c
       -0.1865277 -0.011747782 0.012905018 0.023956224
000350 cd 62 60 3e a8 58 01 be cb ac 14 3c bc 70 19 3d
       0.2191269 -0.12631476 0.0090744 0.037461028
000360 9c 55 10 3e af 01 8a bb 12 eb af bd 9c d5 e6 bd
       0.14095157 -0.0042116265 -0.08589758 -0.112712115
000370 41 4a 19 3c d9 35 16 3d f0 6a de bd d4 0c 31 3e
       0.009356082 0.036672447 -0.108602405 0.1729005
000380 f9 90 cb 3d ac e3 42 be 36 88 48 be 61 40 48 bc
       0.09939761 -0.19032162 -0.1958321 -0.01222238
000390 0c 5f 96 3c 0b 78 20 be a1 3c d3 bc 52 cf 13 3e
       0.018355869 -0.15670793 -0.025785746 0.14434555
0003a0 42 ac 8b bc 0d 20 a7 3d 31 a1 90 bd c4 4f 36 bc
       -0.017049912 0.0816041 -0.07061995 -0.011127416
0003b0 67 f2 af 3d 38 88 b3 bd fe c1 0d bd c6 5d 21 3e
       0.085911565 -0.08766216 -0.034608833 0.15758428
0003c0 c9 55 f7 3d 6d ca 2a 3c bb 5e 28 bd 24 2a 22 bd
       0.12076909 0.010424239 -0.041105967 -0.03959097
0003d0 f8 92 f2 3d c4 ea 25 3c d3 f3 a7 3d 68 42 1e 3d
       0.11844438 0.010126773 0.08200803 0.03863755
0003e0 7f d9 4e be 32 a4 e9 bc d8 91 b5 3c bf 94 20 bd
       -0.20200156 -0.028520677 0.02216427 -0.039204355
0003f0 74 63 c5 3d 87 44 88 bc 8a 9f 00 bc 48 01 18 be
       0.0963811 -0.016634239 -0.007850537 -0.14844239

lstm2.bias_ih_l0 f4 [256]
000000 73 32 55 bc 17 81 08 bf 60 b7 53 bf f9 9d bd be
       -0.013012516 -0.53321975 -0.82701683 -0.37034586
000010 20 3c d0 be 37 53 4b bc b2 13 30 bf dd e6 21 bf
       -0.40670872 -0.012409977 -0.6878005 -0.63242894
000020 23 9a e2 be 69 8c 97 be f9 9c 0f be 99 d1 62 bf
       -0.44258222 -0.29599312 -0.14024724 -0.8860107
000030 28 1e 43 3d ab b2 ff be 76 20 49 bf ba fb e9 bd
       0.04763618 -0.49941 -0.78565156 -0.11424966
000040 af 7f e8 bd 7a c7 92 be dc b9 3d bf fa 55 45 bf
       -0.11352479 -0.28667814 -0.74111724 -0.77084315
000050 75 16 a0 3c 5d 48 95 3d 33 31 5d bf 45 cc 24 be
       0.019541958 0.07289193 -0.864032 -0.16093548
000060 f5 e5 60 be bc 0a 42 bf b5 e7 5c be 2d e4 08 be
       -0.21962722 -0.7579763 -0.21572764 -0.13368292
000070 f0 ad 44 bf 27 f5 ab be be b7 94 be 9f 7b aa 3d
       -0.7682791 -0.33585474 -0.29046434 0.0832436
000080 df df 16 be 1e 4a 54 bd 06 9b 90 be 3a 5b 5e bf
       -0.14733838 -0.051828496 -0.28243273 -0.8685795
000090 2a 45 61 bf 8d ef 24 bc d8 fe bf be 6d 98 38 3c
       -0.8799616 -0.010066879 -0.37499118 0.01126681
0000a0 ce af d0 be 6e 6e 1b bc 07 2d 55 bf 9f 73 00 bf
       -0.40759128 -0.009486778 -0.8327183 -0.50176424
0000b0 39 ec de be 23 d0 36 be f8 98 ba be d1 5a 88 be
       -0.435396 -0.17852835 -0.3644483 -0.26631787
0000c0 67 f9 d2 3c bc 44 19 be 5b 95 41 bf cb a4 29 bf
       0.02575369 -0.14967626 -0.75618523 -0.6626708
0000d0 c4 97 10 bf ad 50 32 bf 97 dd 36 bf da 57 f3 be
       -0.56481576 -0.6965435 -0.7143187 -0.47527963
0000e0 fd 8b 54 3d 5b 98 d1 be 40 fc 53 bf 11 e5 58 bf
       0.051891316 -0.4093655 -0.8280678 -0.8472453
0000f0 33 be 2a bd 9f 38 4a be 37 52 2a bf e9 e6 8e 3d
       -0.041685294 -0.19748162 -0.665317 0.06977636
000100 de 72 f4 bc 9d de f8 be 8c c6 d4 be bf aa 9b be
       -0.02983993 -0.4860734 -0.4155773 -0.30403706
000110 f8 4a d5 be d5 2e 14 be c0 3b f7 be 41 8a cc be
       -0.4165876 -0.1447099 -0.48287773 -0.3994923
000120 af 03 1d bf e1 16 92 be 3b e8 4f be 67 23 de be
       -0.61333746 -0.2853308 -0.20303433 -0.43386385
000130 38 e0 79 3d 03 ba f5 be b4 7d f2 be 46 b1 91 be
       0.061004847 -0.47993478 -0.4736153 -0.2845556
000140 b4 39 1b be 16 0e 23 be 5c 8c c4 be b7 53 e5 be
       -0.15158731 -0.15923342 -0.38388336 -0.44790432
000150 db 8e 00 3d 86 25 56 3d 01 39 f6 be ad c7 86 be
       0.031386238 0.05228188 -0.48090366 -0.26324216
000160 38 ae 5c be 94 5f e2 be 66 51 bc be 10 de a8 be
       -0.21550834 -0.44213545 -0.36780852 -0.3298192
000170 f9 9d 08 bf 0e 5b 18 be 8a df de be 6a de 49 bc
       -0.5336605 -0.14878485 -0.43529922 -0.012321094
000180 55 54 a2 be 34 48 64 be 35 3a 3e bf 42 c4 df be
       -0.31704965 -0.22293168 -0.74307567 -0.4370442
000190 c4 02 ed be 66 b7 b1 3c cb 10 14 bf 0e 57 d6 bd
       -0.46291173 0.021693897 -0.57838124 -0.10465823
0001a0 5c 26 15 bf b5 43 a1 bd ee 8e f8 be 06 5e 40 bf
       -0.58261657 -0.07874242 -0.48546547 -0.7514347
0001b0 43 32 08 bf bb 0c 2c be 3e f5 e6 be 76 02 ea ba
       -0.53201693 -0.16801731 -0.4510898 -0.0017853517
0001c0 d5 fe 99 bd 03 6f 78 be 61 f1 d1 be 5f 05 12 bf
       -0.075193085 -0.24261098 -0.4100447 -0.57039446
0001d0 b0 08 0c bf 14 42 1c bf bd 54 af be 5e b2 d9 be
       -0.54700756 -0.6103833 -0.34244338 -0.42518896
0001e0 a2 12 95 3d d3 ec 01 bf 42 65 cb be 4e 37 db be
       0.072789446 -0.5075199 -0.3972569 -0.42815632
0001f0 4e 89 a4 bd 48 30 8b be e3 c9 0b bf 5b 91 08 3d
       -0.08034001 -0.27185273 -0.5460493 0.033341747
000200 a3 7d 9d bc 70 91 5b b8 e1 ff 0c 3d 15 65 67 ba
       -0.019224947 -5.2349118e-05 0.034423713 -0.0008827013
000210 8d 5b be 3c 92 f4 65 3c c1 90 90 bc 98 1e d2 bb
       0.023237014 0.014035361 -0.017647149 -0.0064123385
000220 5b 2f be bc 71 63 01 bc f2 4b 4b bd 40 66 99 3b
       -0.02321594 -0.007897244 -0.049632974 0.0046813786
000230 e5 55 a4 3d b2 b5 9b 3c e9 af 5f bd e0 5b 84 bc
       0.080241956 0.019007538 -0.05461112 -0.01615709
000240 df df 95 3c 10 60 d6 3b 83 f8 e5 bc b7 c4 07 bd
       0.018295227 0.0065422133 -0.028072601 -0.033146586
000250 aa 4f 99 3b 31 1f 67 3c 55 8c ab bc c2 4a d5 bc
       0.004678686 0.014106558 -0.020940939 -0.026036624
000260 71 bd 1f 3d d8 e3 cc 3c d6 7d 76 bc 18 bf 0a bd
       0.038999025 0.025010988 -0.01504465 -0.033873647
000270 36 a1 1e bd 80 fd 9a bc 03 8e cb bb 30 a8 91 bb
       -0.03872796 -0.018919706 -0.0062119975 -0.0044450983
000280 df d6 32 bb 4a 8c 4a 3c 14 91 08 bc 69 0e 75 bc
       -0.0027288718 0.012362549 -0.008335371 -0.014957049
000290 10 5e a9 bc 3d f7 2e 3d dd 26 65 bd 70 f9 84 bc
       -0.020674735 0.042716254 -0.055945266 -0.016232222
0002a0 3a 12 c0 3c 8a 37 9f bc 35 5a 61 bc a2 df 8a 3c
       0.023446191 -0.019435663 -0.013754417 0.01695234
0002b0 b8 7f 22 3c 6c 9b 11 3d 47 c8 af 3c 03 e8 09 bc
       0.009918146 0.035548612 0.021457804 -0.008417132
0002c0 ee d6 a6 bc 93 ef 80 bd ad 9c 4c bc e6 75 ea 3c
       -0.020366158 -0.06295695 -0.012488526 0.028620671
0002d0 c2 bb 82 3d 6f 52 b3 bb 5a d7 b5 bc c1 6a 63 3b
       0.06383468 -0.0054724733 -0.022197414 0.0034701081
0002e0 0e 91 3c bd fc 5d 8a bb 74 5f aa 3c c4 c0 b7 bc
       -0.046036772 -0.0042226296 0.020797469 -0.022430785
0002f0 38 3e 36 3d e5 97 c8 bc fc 96 91 3b e4 85 03 3d
       0.04449293 -0.024486491 0.0044430476 0.03211011
000300 09 7c 62 bd 23 da 08 bf f4 ea 45 bf 72 c7 b8 be
       -0.05529407 -0.5345785 -0.77311635 -0.36089665
000310 d8 84 eb be 70 3a 09 be db 3c 30 bf 81 c3 1d bf
       -0.4599979 -0.13401198 -0.6884286 -0.6162644
000320 69 fa cb be f7 a5 ab be 94 3f 79 be 55 59 4b bf
       -0.39839485 -0.3352506 -0.2434066 -0.79433185
000330 09 f5 ac b8 e3 8b f5 be e2 50 45 bf b6 95 73 be
       -8.2472405e-05 -0.47958288 -0.7707654 -0.23787579
000340 96 ab 65 be 1a 2b 91 be 7b 97 46 bf bb c4 43 bf
       -0.22428736 -0.28353196 -0.7757489 -0.7647206
000350 c2 06 94 bd e4 3b 09 3d 08 4b 52 bf e0 36 6a be
       -0.072278515 0.03350438 -0.8214574 -0.22872496
000360 4b be 75 be ad 52 30 bf 8d 94 38 be 88 7d 27 be
       -0.23998372 -0.68876153 -0.18025418 -0.1635648
000370 39 48 3f bf 73 41 94 be 55 35 b6 be 31 19 c4 bc
       -0.7471958 -0.28956184 -0.35587564 -0.023937793
000380 f5 7a fd bd 37 e9 c8 bd 7f 06 70 be 7b 52 57 bf
       -0.12376968 -0.09810107 -0.23439978 -0.8411023
000390 ab 33 5a bf 6d 06 52 3c 37 82 e2 be bc 54 9c bc
       -0.8523509 0.012818915 -0.4423997 -0.019083373
0003a0 90 2d d5 be ed 5c bb bd 0b 0c 4a bf 6f b3 f1 be
       -0.41636324 -0.091485836 -0.78924626 -0.4720721
0003b0 88 83 ca be 12 b4 64 be 98 f9 d8 be 14 5e 52 be
       -0.39553475 -0.22334316 -0.42377925 -0.205437
0003c0 40 91 23 bb 9c b2 28 be a9 f7 49 bf 3f 0f 28 bf
       -0.0024958402 -0.16474384 -0.78893524 -0.65648264
0003d0 04 ac 22 bf 9a e7 2e bf 9f b1 37 bf 24 57 06 bf
       -0.63543725 -0.68322146 -0.71755403 -0.52476716
0003e0 55 40 0d bd 0e 43 ed be 41 51 56 bf 94 84 4e bf
       -0.03448518 -0.4634022 -0.83717734 -0.8067105
0003f0 27 31 ea bc 04 9d 82 be 2c 08 40 bf 12 c9 b7 bd
       -0.02858789 -0.25510418 -0.7501247 -0.08973898
