results/ann/model_cluster0_run1750611537.pt (torch, 513242 bytes, 12 tensors)

lstm1.weight_ih_l0 f4 [512, 13]
0	0xbec13aec	-0.37740266
1	0xbea8a576	-0.32938737
2	0xbdc8452d	-0.09778819
3	0xbe02bab9	-0.12766542
4	0x3c376867	0.011194325
5	0xbe88ff1a	-0.26757127
6	0xbe70f865	-0.23532255
7	0xbe9f991d	-0.31171504
8	0xbe117b35	-0.14207156
9	0xbda6e8bd	-0.0814986
10	0x3ca379e3	0.019955581
11	0xbcea7cff	-0.028624056
12	0xbcd82294	-0.026383676
13	0xbe87a48f	-0.26492736
14	0xbf030d44	-0.51192117
15	0x3db7e7ac	0.08979735
16	0xbd9944ca	-0.074838236
17	0xbd7f84c8	-0.06238249
18	0xbef95e8e	-0.48704952
19	0xbef8432a	-0.48488742
20	0xbeca842c	-0.39553964
21	0xbe414ad8	-0.18876207
22	0xbf201c70	-0.6254339
23	0x3c6f05bf	0.014588772
24	0xbcf04b22	-0.029332701
25	0xbd163de2	-0.03668011
26	0xbea174d6	-0.3153445
27	0xbea45f9b	-0.3210419
28	0xbdb7be12	-0.089718
29	0x3df689fd	0.12038038
30	0xbe09300d	-0.13397236
31	0xbe7ab113	-0.24481611
32	0xbeb96995	-0.36213365
33	0xbe821730	-0.25408316
34	0xbede6430	-0.43435812
35	0xbe9466a7	-0.28984568
36	0x3ce66c55	0.028127829
37	0x3b82a010	0.003986366
38	0xbc0123d9	-0.007882082
39	0xbe57aec6	-0.21062765
40	0xbe10a2b2	-0.14124563
41	0xbdf21863	-0.11821058
42	0xbe2a00fd	-0.1660194
43	0xbd7b2699	-0.061316106
44	0xbe2373bd	-0.1596212
45	0xbe0b81c5	-0.13623722
46	0xbe6cc1d7	-0.23120819
47	0xbe91020e	-0.2832188
48	0xbdcf7793	-0.10130229
49	0xbccea176	-0.025223475
50	0xbd13846e	-0.036014967
51	0xbbb166e1	-0.0054138754
52	0xbe488add	-0.19584222
53	0xbd931470	-0.071816325
54	0xbddeab0a	-0.10872467
55	0x3e41ba1c	0.18918651
56	0xbdd72d81	-0.10506726
57	0xbd2f4c81	-0.04279757
58	0xbe77a4af	-0.24183916
59	0x3d626915	0.055275995
60	0xbf4a33e7	-0.78985447
61	0x3e02ee54	0.12786227
62	0x3c0e495b	0.0086844815
63	0xbc5b8d98	-0.013400458
64	0x3cf7cac8	0.03024806
65	0xbe0258ad	-0.1272914
66	0xbe5bbe09	-0.21459211
67	0xbe4454d9	-0.19172992
68	0xbd73583c	-0.05941032
69	0xbd08b8a1	-0.0333792
70	0xbe44730f	-0.19184516
71	0xbf00d96a	-0.5033175
72	0x3e7e1f0b	0.2481653
73	0x3e29433c	0.16529554
74	0x3c50e6b5	0.012750317
75	0xbd15a42b	-0.036533516
76	0xbc20ced2	-0.009814935
77	0xbcdc438b	-0.026887676
78	0xbf13ed57	-0.57784027
79	0xbf099607	-0.5374455
80	0xbee85728	-0.45378995
81	0xbeb20a90	-0.34773684
82	0xbef66eed	-0.48131505
83	0xbf1222ef	-0.57084554
84	0xbec06274	-0.37575114
85	0xbef0216d	-0.46900502
86	0xbf27a2ba	-0.65482676
87	0xbe8c8ea3	-0.27452573
88	0x3c8a58f0	0.016888112
89	0x3c25a012	0.0101089645
90	0xbc0bf500	-0.008542299
91	0xbe9972eb	-0.29970488
92	0xbe7510a5	-0.2393213
93	0xbdca6ed7	-0.09884422
94	0xbc9138f5	-0.017727355
95	0xbebb157e	-0.36539835
96	0xbe613404	-0.21992499
97	0xbf1fccab	-0.62421674
98	0x3d6b1b46	0.057399057
99	0xbf072185	-0.5278552
100	0xbe54f313	-0.2079585
101	0x3c2d7ecb	0.010589312
102	0x3cd37c73	0.025816178
103	0x3a85d99d	0.0010211949
104	0xbe262c25	-0.16227777
105	0xbe7ff97a	-0.24997512
106	0xbe1d8545	-0.1538287
107	0xbdd1d0da	-0.102449134
108	0xbdfae1ab	-0.12250074
109	0xbe677cd8	-0.22606218
110	0x3e76fe95	0.24120553
111	0xbf07f2e0	-0.5310497
112	0xbe87da8f	-0.26533934
113	0x3ded6e6b	0.11593326
114	0x3c19b67c	0.009381887
115	0x3b991fc4	0.004672976
116	0x3cd81caf	0.026380865
117	0xbd3ea980	-0.046548367
118	0xbbd765f6	-0.006573434
119	0x3d9c3e2e	0.07629047
120	0x3def0467	0.116707616
121	0x3d801ed4	0.0625588
122	0xbd326208	-0.04355052
123	0xbdfe0938	-0.12404102
124	0x3e7c8335	0.24659427
125	0xbe056bdb	-0.13029425
126	0xbd1ca98c	-0.03824763
127	0x3c7dfc2f	0.01550202
128	0xbd16aefb	-0.036787968
129	0xbcad69fd	-0.021168703
130	0xbf2be2b6	-0.6714281
131	0xbf14f461	-0.5818539
132	0xbf148fc3	-0.5803186
133	0xbf0c3c80	-0.54779816
134	0xbf083217	-0.5320143
135	0xbf141b85	-0.5785449
136	0xbee7eb76	-0.4529683
137	0xbf0d22f7	-0.5513148
138	0xbf11c402	-0.5693971
139	0xbec55422	-0.3854075
140	0x3c844d88	0.016150251
141	0x3c230270	0.009949312
142	0xbb7af7ff	-0.003829479
143	0xbd356c79	-0.0442929
144	0x3dcfa70b	0.10139283
145	0xbebfff92	-0.37499672
146	0xbea337eb	-0.318786
147	0xbe1264e1	-0.14296295
148	0x3de72d38	0.11287922
149	0xbdd23703	-0.10264399
150	0x3f1ce628	0.6128869
151	0xbdbe72b3	-0.09299221
152	0x3c45d0da	0.01207372
153	0x3c8e9cbe	0.017408725
154	0x3c5f47d9	0.01362797
155	0x3d197ed9	0.037474487
156	0xbe8ba489	-0.27273968
157	0xbecaa3c2	-0.39578062
158	0xbdea2467	-0.114327244
159	0xbde1ecf3	-0.110315226
160	0xbdd76726	-0.10517721
161	0xbebea8f3	-0.37238273
162	0xbe1ec1bb	-0.1550359
163	0xbec35b09	-0.38155392
164	0xbeaa973f	-0.33318517
165	0xbe853ee1	-0.26024535
166	0xbc95a7d3	-0.018268501
167	0xbbe268b9	-0.0069094566
168	0xbc0008bc	-0.007814582
169	0xbe96dd4e	-0.29465717
170	0xbe3626de	-0.17788264
171	0xbeae1700	-0.34001923
172	0xbea01e03	-0.31272897
173	0xbe0edf17	-0.1395229
174	0xbe22af6e	-0.15887234
175	0xbe68915c	-0.227117
176	0x3e9581c2	0.2920056
177	0xbe8660f2	-0.26245838
178	0x3e084c66	0.13310394
179	0x3d119f7a	0.03555248
180	0xbd0ba926	-0.03409686
181	0x3cc2baef	0.023770778
182	0xbecc5b1f	-0.3991327
183	0xbee46237	-0.44606182
184	0x3d951fbb	0.07281443
185	0xbd743f53	-0.059630703
186	0xbb5cc7bb	-0.0033688385
187	0xbef35340	-0.47524452
188	0xbeb55a70	-0.3542056
189	0xbf2e3b32	-0.68059075
190	0xbeda780d	-0.42669716
191	0xbe0194cc	-0.12654418
192	0xbcef2852	-0.02919403
193	0xbd033df3	-0.0320415
194	0x3c63ea51	0.013910846
195	0xbe08172e	-0.13290092
196	0x3bdfcf5f	0.0068301405
197	0xbbefd6d6	-0.0073193116
198	0x3d64afcc	0.055831715
199	0x3dc930ee	0.09823786
200	0x3c60f2a1	0.013729722
201	0xbed847e3	-0.42242345
202	0x3cde9b33	0.027173614
203	0xbf26bb00	-0.6512909
204	0x3dea2149	0.1143213
205	0x3c1eafbc	0.009685453
206	0x3ca0a03a	0.019607652
207	0xbd043567	-0.03227749
208	0xbed8a2dd	-0.42311755
209	0xbea16ee5	-0.31529918
210	0xbe08521a	-0.1331257
211	0xbde3ab4e	-0.11116658
212	0xbdcbde1d	-0.09954474
213	0xbea9970f	-0.3312306
214	0xbe90791a	-0.28217393
215	0xbee53905	-0.44770065
216	0xbec5022a	-0.38478214
217	0xbdecfbca	-0.115714625
218	0x3cc563c6	0.024095427
219	0x3c37f0c4	0.011226837
220	0xbc198453	-0.009369927
221	0xbeab708a	-0.33484298
222	0xbe905ab8	-0.28194213
223	0xbdaca6de	-0.08430265
224	0xbdab8879	-0.083756395
225	0xbc38e20e	-0.011284364
226	0xbe73613c	-0.2376756
227	0xbe97b44a	-0.29629737
228	0xbe58cd33	-0.21172027
229	0xbf01b344	-0.5066416
230	0x3d33d31a	0.043902494
231	0xbba4a77e	-0.0050248494
232	0x3cc7ca71	0.024388524
233	0x3caf0e97	0.021369262
234	0xbefe5f8f	-0.4968228
235	0xbf02f192	-0.5114986
236	0xbe9bf0ac	-0.30457056
237	0xbe451fe7	-0.19250451
238	0xbe86f7fe	-0.26361078
239	0xbeec7328	-0.46181607
240	0xbe7b9fb5	-0.24572642
241	0xbf1d3af6	-0.6141809
242	0xbf028305	-0.5098117
243	0xbe4db2c1	-0.2008772
244	0x3d097290	0.03355652
245	0xbca44e64	-0.02005691
246	0x3d14a315	0.03628834
247	0x3d851344	0.06497815
248	0x3df9edf5	0.1220359
249	0xbd597977	-0.053094354
250	0xbe5c1e03	-0.21495824
251	0xbef1f68a	-0.47258407
252	0x3d4ae5c5	0.04953553
253	0xbc9012cd	-0.01758709
254	0x3ee9146b	0.4552339
255	0x3f100e84	0.5627215

lstm1.weight_hh_l0 f4 [512, 128]
0	0xbebfe781	-0.3748131
1	0x3e1f0936	0.15530857
2	0x3e9644d8	0.293494
3	0xbeb49517	-0.35269997
4	0x3e9fbc71	0.31198457
5	0x3e88cab0	0.26717138
6	0x3ebee506	0.37284106
7	0xbd82ec8d	-0.06392775
8	0xbd62c721	-0.055365685
9	0xbde74b13	-0.11293616
10	0xbea67588	-0.32511544
11	0xbe7d9f08	-0.24767697
12	0x3985c7cd	0.000255166
13	0x3e2568bb	0.16153233
14	0xbe201616	-0.15633425
15	0x3e937e9f	0.28807542
16	0x3d669fa4	0.05630459
17	0xbe3352e4	-0.17512089
18	0xbeae1e7a	-0.34007627
19	0x3d99897c	0.07496926
20	0x3c3462df	0.011009901
21	0xbd2c8807	-0.042121913
22	0x3d399d8e	0.04531627
23	0x3c7e11b8	0.015507154
24	0x3d8a79f8	0.06761545
25	0xbda5a321	-0.08087755
26	0xbe398eb4	-0.18120843
27	0xbe2ff1eb	-0.17182128
28	0x3cb6fd41	0.022337558
29	0xbea9e3ac	-0.33181512
30	0x3cfed31d	0.031106526
31	0x3e2801d2	0.16406944
32	0x3df2b170	0.1185025
33	0x3d72f954	0.05931981
34	0x3e44df0d	0.19225712
35	0xbe6a5c5d	-0.22886796
36	0xbdf8660e	-0.121288404
37	0xbe420445	-0.18946941
38	0x3d84a3e3	0.064765714
39	0xbe1e3633	-0.15450363
40	0x3e189c55	0.14903386
41	0xbe8d39f5	-0.2758328
42	0xbe0d7680	-0.13814735
43	0xbeaafb0a	-0.33394653
44	0xbe763aa8	-0.24045813
45	0x3cefa9c9	0.029255765
46	0xbd559b2b	-0.052149933
47	0xbe0947b1	-0.13406254
48	0xbe5abce1	-0.21361114
49	0xbe5402cc	-0.20704192
50	0xbdfefb60	-0.1245029
51	0xbda7ff38	-0.08202976
52	0x3e0de6f5	0.13857634
53	0x3dcebb25	0.10094289
54	0x3e819e6a	0.25316173
55	0xbb7ac3f9	-0.0038263781
56	0xbed7c5e0	-0.42143154
57	0xbe83a90e	-0.25714916
58	0x3e610d62	0.21977761
59	0xbd9003c8	-0.07031971
60	0xbeb2e498	-0.34940028
61	0x3e63a2e3	0.22230105
62	0x3eafce0d	0.34336892
63	0xbe44c253	-0.19214754
64	0xbcbf4e18	-0.023352668
65	0xbcf4f9a2	-0.02990419
66	0x3e1166a1	0.14199306
67	0x3eaaf175	0.33387342
68	0xbb779c8d	-0.003778252
69	0xbe831d25	-0.25608173
70	0xbeba6e99	-0.36412504
71	0xbda3c1ea	-0.079959705
72	0xbec1b7ae	-0.3783545
73	0xbe608227	-0.21924649
74	0x3e8dbefd	0.27684775
75	0xbc72287e	-0.014780162
76	0xbe84ee4a	-0.2596305
77	0xbead7267	-0.33876345
78	0x3ec58768	0.3857987
79	0x3e929286	0.28627414
80	0xbcbd36fe	-0.023097511
81	0x3e27fedd	0.16405816
82	0x3e7e3cc3	0.24827866
83	0x3eb4707d	0.35242072
84	0x3ead1d29	0.3381131
85	0xbd4f5fc6	-0.050628446
86	0x3e864a0e	0.26228374
87	0xbd06c8ca	-0.03290633
88	0xbed1fc06	-0.4101259
89	0x3da064e4	0.07831743
90	0xbe31c319	-0.1735958
91	0xbd99583d	-0.07487533
92	0xbe674b69	-0.2258736
93	0x3cfda93c	0.030964486
94	0x3d41aa61	0.047281627
95	0x3de1dc4e	0.11028348
96	0x3e91425a	0.28370935
97	0x3e0e2873	0.13882618
98	0xbdf59359	-0.11990995
99	0xbd7b8d93	-0.061414313
100	0x3ea1fd76	0.31638688
101	0xbea15628	-0.31511045
102	0x3e51bc3c	0.20481962
103	0x3df846dc	0.1212289
104	0xbdfb80df	-0.122804396
105	0x3eb73245	0.3578054
106	0x3bbacc14	0.0057005975
107	0x3dc98baa	0.09841092
108	0xbe4c84eb	-0.19972579
109	0x3e7e5187	0.24835788
110	0xbe8dde86	-0.27708834
111	0xbdfcc7f2	-0.12342824
112	0x3d5c3750	0.053763688
113	0xbc22aee0	-0.009929389
114	0xbe184245	-0.1486903
115	0x3e290b6c	0.16508263
116	0x3e995208	0.29945397
117	0x3e771ac7	0.24131308
118	0x3e6a822a	0.22901216
119	0xbe61e4e3	-0.2205997
120	0x3ee82fec	0.4534906
121	0x3e80efa2	0.25182825
122	0x3e0b0146	0.13574705
123	0xbdcaa587	-0.09894853
124	0xbea154d4	-0.3151003
125	0xbee4408f	-0.44580504
126	0xbe190a79	-0.14945401
127	0xbe6656c8	-0.22494042
128	0xbd2b0fc9	-0.0417631
129	0xbd972d5a	-0.07381697
130	0x3e4184e1	0.18898346
131	0x3e5f1a3f	0.21787356
132	0xbe01e3d9	-0.12684573
133	0x3e9e3ca5	0.30905643
134	0x3d15c773	0.036567163
135	0x3e8c259a	0.27372438
136	0xbe5cb7f3	-0.21554546
137	0x3dcda972	0.10042085
138	0xbd76f6df	-0.06029403
139	0xbed8ecf4	-0.4236828
140	0xbd0face9	-0.03507701
141	0x3e0dd266	0.13849792
142	0x3e77c20e	0.2419512
143	0x3e1d1734	0.15340883
144	0xbdbe3988	-0.09288317
145	0x3d1d9865	0.038475413
146	0x3e2afe8d	0.16698666
147	0xbda65d58	-0.08123273
148	0x3e0089f0	0.12552619
149	0xbebe98ac	-0.37225854
150	0x3e0b1e49	0.13585772
151	0x3eb847fa	0.35992414
152	0xbe4bcbfe	-0.19902036
153	0xbe694fb5	-0.22784312
154	0xbd7a978b	-0.06117968
155	0x3e4eee58	0.20208108
156	0x3df3c8e5	0.11903552
157	0x3d0d3780	0.034476757
158	0x3cc2bc67	0.023771478
159	0xbe32e35f	-0.17469548
160	0xbe85893a	-0.26081258
161	0xbe45dd01	-0.19322588
162	0xbe9a3a5f	-0.3012266
163	0xbcf85065	-0.030311773
164	0xbc80b394	-0.01571063
165	0x3d239ff1	0.039947454
166	0x3c8ef349	0.017449992
167	0x3cdbf50d	0.026850248
168	0x3d816d1b	0.06319638
169	0xbd7f5a22	-0.062341817
170	0x3e50c533	0.20387726
171	0x3ca22f88	0.019798055
172	0xbe25acd0	-0.16179204
173	0xbe26f7d3	-0.16305475
174	0xbe53c708	-0.20681393
175	0xbd4bf857	-0.049797382
176	0xbe59c507	-0.21266566
177	0x3c0a5631	0.008443401
178	0x3d4047e8	0.046943575
179	0xbce0ca05	-0.02744008
180	0x3e24de25	0.16100366
181	0xbe33d22b	-0.17560641
182	0x3e95431b	0.2915276
183	0x3e0140f9	0.12622441
184	0xbd3e5f3e	-0.04647755
185	0xbd8d703e	-0.06906174
186	0xbe6a6d48	-0.2289325
187	0x3c90ab6a	0.017659862
188	0x3d9612e8	0.07327825
189	0xbc714177	-0.014725081
190	0x3d76bef7	0.060240712
191	0x3dd0401b	0.10168477
192	0x3d92c0cc	0.07165679
193	0xbde72589	-0.11286456
194	0xbe62c5f4	-0.22145826
195	0x3e007983	0.12546353
196	0x3e97e62e	0.296678
197	0xbd92733e	-0.07150887
198	0xbdc6da7d	-0.09709642
199	0x3bf7ac45	0.007558378
200	0x3e000375	0.12501319
201	0x3daa163f	0.08305024
202	0xbe18a3e5	-0.14906271
203	0x3e555676	0.20833763
204	0x3dd8e34f	0.10590231
205	0x3cb111ec	0.021614991
206	0xbe3f9d06	-0.18712243
207	0x3e17756f	0.14790891
208	0xbd9569cc	-0.0729557
209	0x3e586796	0.21133265
210	0xbda8dc91	-0.08245195
211	0xbe2ca5e4	-0.16860157
212	0x3cd298d5	0.025707642
213	0xbde92bf5	-0.11385337
214	0x3a5018d6	0.0007938271
215	0x3ece0198	0.4023559
216	0x3e975e93	0.29564342
217	0xbc429bad	-0.011877936
218	0xbda6479e	-0.08119129
219	0x3d4e2491	0.05032784
220	0x3d91b040	0.07113695
221	0xbe781afb	-0.24229042
222	0x3de85a4d	0.113453485
223	0xbe29b489	-0.16572775
224	0x3dd51efb	0.104063
225	0xbd6db3bb	-0.058032732
226	0x3e671f8a	0.22570625
227	0xbdee2827	-0.11628752
228	0xbda97522	-0.082742944
229	0xbd8c631e	-0.068548426
230	0xbe06b565	-0.13155134
231	0x3b8b5b18	0.0042528026
232	0x3e615588	0.22005284
233	0xbcd7fed5	-0.02636663
234	0xbe3e5b8c	-0.1858961
235	0x3c8f2f67	0.017478658
236	0x3e07b6e4	0.13253361
237	0x3df9abc7	0.12190967
238	0xbe0c214e	-0.1368458
239	0xbe2b80f7	-0.16748415
240	0xbc88e3cf	-0.01671019
241	0x3e6274ee	0.22114918
242	0x3dbc1c5e	0.09185098
243	0xbdec2b84	-0.115317374
244	0xbe780b7e	-0.24223134
245	0x3c414c4f	0.011797979
246	0xbd062470	-0.032749593
247	0xbd86d127	-0.065828614
248	0x3d26ae5e	0.040693633
249	0x3e3efe0c	0.18651599
250	0x3e6f785d	0.23385759
251	0xbe39d39a	-0.18147126
252	0xbe3f643a	-0.18690577
253	0x3c92e52a	0.01793154
254	0xbe291ad9	-0.16514148
255	0x3e0e7354	0.13911182

lstm1.bias_ih_l0 f4 [512]
0	0xbe24129d	-0.16022725
1	0xbe5dc529	-0.21657242
2	0xbe8b9b3a	-0.27266866
3	0xbd5874fb	-0.052845936
4	0x3dd0e8e9	0.10200674
5	0xbd418d5a	-0.047253944
6	0xbee1d7b0	-0.4410987
7	0xbe9c776c	-0.30559862
8	0xbd102ed3	-0.035200905
9	0xbe040e9c	-0.12896198
10	0xbefdc93d	-0.49567595
11	0xbde5e998	-0.11226195
12	0xbe210fa8	-0.15728629
13	0xbe4f6955	-0.20255025
14	0xbdc77ac7	-0.09740215
15	0x3db5fc67	0.088860326
16	0xbe983f3f	-0.29735753
17	0xbde8d6ed	-0.11369119
18	0xbeaf84d2	-0.3428102
19	0xbdd20703	-0.10255244
20	0x3db2c083	0.08728125
21	0xbd909f43	-0.07061627
22	0xbd735107	-0.059403446
23	0xbe1fa96a	-0.1559197
24	0xbe161d91	-0.14659716
25	0xbee15af0	-0.44014692
26	0xbed6a81c	-0.41925132
27	0xbd6545e7	-0.055974867
28	0x3e3871f9	0.18012227
29	0xbe947c49	-0.29001072
30	0xbe5f883c	-0.21829313
31	0x3d77dcb8	0.06051323
32	0xbefc8821	-0.49322608
33	0xbd4cbee6	-0.049986742
34	0xbe20a287	-0.15687
35	0xbe885058	-0.26623797
36	0x3e830a1a	0.25593644
37	0xbda582b4	-0.0808157
38	0xbe7c0e76	-0.24614891
39	0xbda91db4	-0.082576185
40	0xbe0903d1	-0.13380362
41	0xbf375b37	-0.7162356
42	0x3dda4271	0.10657204
43	0xbe6b39a4	-0.22971207
44	0x3cb62d5d	0.022238428
45	0xbb526b1d	-0.0032107302
46	0x3c9ad083	0.018898254
47	0xbee1166b	-0.43962416
48	0xbebca38c	-0.36843526
49	0xbdf1366b	-0.117779575
50	0xbed3231a	-0.41237718
51	0xbf44cbf0	-0.76873684
52	0xbe63ac1f	-0.22233628
53	0xbe392029	-0.18078674
54	0xbe79c7c8	-0.24392617
55	0xbeab9fe7	-0.33520433
56	0xbe9a3b25	-0.3012325
57	0xbe605dd0	-0.21910787
58	0xbe810746	-0.25200862
59	0x3d56ceb8	0.052443236
60	0x3d2a00c9	0.041504655
61	0xbea53820	-0.32269382
62	0xbe807aba	-0.25093633
63	0xbe0d4174	-0.137945
64	0xbe88ccc1	-0.26718715
65	0x3d8afdbf	0.067866795
66	0x3dfdaad1	0.12386096
67	0xbe481199	-0.19537963
68	0x3c88635b	0.016648939
69	0xbe7bb102	-0.24579242
70	0xbec4a4bb	-0.3840693
71	0x3d0294dc	0.031880245
72	0xbe477346	-0.19477567
73	0xbf0f04cf	-0.5586671
74	0xbeee877c	-0.4658774
75	0x3cb00a7f	0.02148938
76	0x3e32b71a	0.1745266
77	0xbe2dcb3a	-0.16972056
78	0xbd9e3b12	-0.077261105
79	0xbeaa975d	-0.33318606
80	0xbdbdafd9	-0.09262056
81	0xbd845519	-0.064615436
82	0xbe15a58d	-0.14613934
83	0xbefd8a60	-0.49519634
84	0xbe789290	-0.24274659
85	0xbe2864f6	-0.16444764
86	0xbc810758	-0.015750572
87	0x3d9bd514	0.07609001
88	0x3cb3cf9c	0.021949582
89	0x3e8059e1	0.25068572
90	0xbea05575	-0.313152
91	0xbe4697c1	-0.19393827
92	0x3c393a5c	0.011305418
93	0xbe7f1744	-0.24911219
94	0xbb5381ce	-0.0032273415
95	0xbc92ffdd	-0.01794427
96	0xbdaa5cc2	-0.083184734
97	0xbeb043ca	-0.3442672
98	0xbe38410d	-0.17993565
99	0x3e042e14	0.12908202
100	0xbdf801b9	-0.121097036
101	0xbdae22f2	-0.08502759
102	0x3d02ed5b	0.03196464
103	0x3e70be44	0.2351008
104	0xbe457087	-0.19281207
105	0xbeca6243	-0.39528093
106	0xbdec211b	-0.11529752
107	0x3e0ee6cb	0.13955228
108	0xbecc7792	-0.39934975
109	0xbe8065cd	-0.25077668
110	0xbe738b21	-0.23783542
111	0x3df72293	0.120671414
112	0xbe2076e9	-0.1567036
113	0x3cc4f3b8	0.024041995
114	0xbe90c9ad	-0.28278866
115	0x3e30fcbc	0.1728391
116	0xbe819b2a	-0.25313693
117	0x3da7a8ae	0.0818647
118	0xbe5f31fc	-0.21796411
119	0xbddaefef	-0.10690295
120	0xbdd798fd	-0.10527227
121	0xbd1fd683	-0.039022934
122	0xbdd180cf	-0.102296464
123	0xbed6e979	-0.41975
124	0xbdbea1b8	-0.09308189
125	0xbed38228	-0.4131024
126	0x3dce429d	0.10071299
127	0xbed2325b	-0.41054043
128	0xbed25b17	-0.4108512
129	0x3d36ef9a	0.044662096
130	0xbddc7636	-0.107647344
131	0xbe4ac28b	-0.19800775
132	0xbe93d979	-0.28876856
133	0xbdfae7dd	-0.12251256
134	0xbf22ef8a	-0.6364676
135	0xbdc48121	-0.09594942
136	0xbd8af6e9	-0.067853756
137	0xbe407fe2	-0.18798783
138	0xbea39424	-0.3194896
139	0x3d380127	0.044922974
140	0x3ccd937d	0.025094742
141	0xbe27680c	-0.16348284
142	0xbda0e80f	-0.07856762
143	0xbef9d959	-0.48798636
144	0xbeb723c8	-0.35769486
145	0xbe5b8e83	-0.21441083
146	0xbe6ee0a5	-0.23327883
147	0xbd0b60d9	-0.034027908
148	0xbcb9cdc3	-0.022681123
149	0x3c865169	0.016396241
150	0x3d94858b	0.07252034
151	0xbeb61578	-0.35563254
152	0x3d1179f4	0.035516694
153	0xbe0b692e	-0.13614342
154	0xbeea9ca1	-0.45822623
155	0x3d711fd3	0.05886824
156	0xbe970e94	-0.2950331
157	0xbe94d1c8	-0.290663
158	0xbd232205	-0.039827365
159	0xbec1afb6	-0.3782937
160	0xbe93b21e	-0.2884683
161	0x3d0c0f74	0.034194425
162	0xbe07a2ef	-0.13245748
163	0xbe394636	-0.1809319
164	0xbf091e81	-0.5356217
165	0xbc9b1ed5	-0.0189356
166	0xbe38db64	-0.18052441
167	0xbeffbdde	-0.49949545
168	0xbe6fb91e	-0.2341046
169	0xbeff7ca4	-0.4989978
170	0xbe98238c	-0.2971462
171	0xbea1f0f2	-0.3162914
172	0xbe913635	-0.2836167
173	0xbe9aa004	-0.30200207
174	0xbe4547a4	-0.1926561
175	0xbe581ff7	-0.21105944
176	0xbe6f53f8	-0.23371875
177	0xbeda0747	-0.42583677
178	0xbd97528d	-0.07388792
179	0xbf0b6fb4	-0.5446732
180	0xbec2dbde	-0.3805837
181	0xbda55ed3	-0.08074727
182	0xbcd578c2	-0.026058558
183	0xbe3cfd66	-0.18456039
184	0xbe0601ef	-0.13086675
185	0xbe5700b8	-0.20996368
186	0xbdc81386	-0.09769349
187	0x3a317bbe	0.0006770453
188	0xbe91fe9e	-0.2851457
189	0xbef0f515	-0.47061983
190	0xbe073754	-0.132047
191	0xbe16819a	-0.14697877
192	0xbe9c006a	-0.30469066
193	0xbd7b40fa	-0.061341263
194	0x3ea02192	0.31275612
195	0xbea0fa9d	-0.31441203
196	0x3bfa4628	0.007637758
197	0xbea30821	-0.3184214
198	0xbe6e648d	-0.23280545
199	0xbe8d62ec	-0.27614534
200	0xbe9e3aa1	-0.30904105
201	0xbea3aa5a	-0.31965905
202	0xbde5f6d0	-0.112287164
203	0xbeaacf15	-0.33361116
204	0xbec7484f	-0.38922355
205	0x3d69721a	0.05699358
206	0xbd715865	-0.05892219
207	0xbeb8b0df	-0.36072442
208	0xbefb6b6a	-0.49105388
209	0x3d82160f	0.063518636
210	0xbf0dc150	-0.55373096
211	0xbeadf016	-0.33972234
212	0xbeab2a0c	-0.33430517
213	0xbe3d1af5	-0.18467315
214	0xbc4a8fe8	-0.0123634115
215	0x3e0420d7	0.12903152
216	0xbe314647	-0.17311965
217	0xbd996efc	-0.07491872
218	0xbec3fedb	-0.38280377
219	0xbcf00f80	-0.029304266
220	0xbd81ab76	-0.06331532
221	0x3bb685a5	0.005570131
222	0xbe492b34	-0.19645387
223	0xbdefa356	-0.11701076
224	0xbe295a41	-0.16538335
225	0xbee0b922	-0.43891245
226	0x3c374f73	0.011188376
227	0x3d646aaf	0.055765804
228	0xbdce71f5	-0.10080329
229	0xbea50e0c	-0.3223728
230	0xbe7cb1aa	-0.24677148
231	0xbeabc266	-0.33546752
232	0xbd6d4cc1	-0.057934526
233	0xbebe1a05	-0.37129226
234	0xbca31b6e	-0.01991054
235	0xbdc115d6	-0.09427993
236	0xbef5b64f	-0.47990653
237	0xbe68dd8d	-0.22740765
238	0xbea823ca	-0.32839805
239	0xbeb2516a	-0.3482774
240	0xbdfb3b3a	-0.12267156
241	0x3d1aee13	0.0378247
242	0xbe88d853	-0.26727542
243	0xbe592969	-0.21207203
244	0xbe6ca729	-0.23110642
245	0xbec251d7	-0.37953064
246	0xbe6a590e	-0.22885534
247	0xbdb68bba	-0.089133695
248	0xbacaa108	-0.0015459368
249	0x3aacdb44	0.0013187905
250	0xbe26fcb7	-0.1630734
251	0xbe27fd49	-0.16405214
252	0xbd1565d6	-0.03647407
253	0xbe4d8a9a	-0.20072404
254	0xbe948754	-0.29009497
255	0xbe074045	-0.1320811

lstm1.bias_hh_l0 f4 [512]
0	0xbe067420	-0.13130236
1	0xbe6a5854	-0.22885257
2	0xbe9e0e7c	-0.30870426
3	0xbd416c3b	-0.047222357
4	0x3dac9920	0.08427644
5	0xbdc8d75e	-0.09806703
6	0xbed73e33	-0.42039642
7	0xbe8e19db	-0.277541
8	0xbd825b44	-0.06365064
9	0xbd862d91	-0.0655166
10	0xbf0978d3	-0.5369999
11	0xbe295427	-0.16536008
12	0xbe0f14a5	-0.13972719
13	0xbe807a27	-0.25093195
14	0xbdafdba3	-0.08586814
15	0x3e016a6d	0.12638254
16	0xbe855286	-0.26039523
17	0xbe1439be	-0.14475152
18	0xbeb8bcdb	-0.36081585
19	0xbd92090c	-0.07130632
20	0x3d96d9c4	0.07365754
21	0xbdf26ad3	-0.11836781
22	0xbd8d40a5	-0.068970956
23	0xbe340038	-0.17578208
24	0xbe03b8b4	-0.12863427
25	0xbeedafa6	-0.46423072
26	0xbecaff9e	-0.39648145
27	0xbe016cb9	-0.1263913
28	0x3e456fc2	0.19280913
29	0xbe952022	-0.29126078
30	0xbe676d95	-0.22600396
31	0x3dbd1870	0.09233177
32	0xbefcfaed	-0.4941019
33	0xbd818c72	-0.06325616
34	0xbe000791	-0.12502886
35	0xbe766f68	-0.24065936
36	0x3e7e77f0	0.2485044
37	0xbddab6c8	-0.10679394
38	0xbe84978e	-0.25896877
39	0xbdad6b88	-0.084677756
40	0xbe1f0ff1	-0.15533425
41	0xbf3398c8	-0.70155
42	0x3d9ded53	0.077112816
43	0xbe715dc4	-0.23570925
44	0xbbee7cbc	-0.007278053
45	0xbd0081ac	-0.031373665
46	0x3caa4122	0.02078301
47	0xbeef89f1	-0.46784928
48	0xbea3ce84	-0.31993496
49	0xbded0978	-0.11574072
50	0xbeb2de37	-0.3493516
51	0xbf46a3ab	-0.7759349
52	0xbe36cd5d	-0.17851777
53	0xbdf5ea51	-0.12007583
54	0xbe9ab55b	-0.30216488
55	0xbe9617f4	-0.2931515
56	0xbeaa68a2	-0.33282954
57	0xbe5707b5	-0.20999034
58	0xbe703833	-0.23458938
59	0x3da517e6	0.08061199
60	0x3d1c1b52	0.038111992
61	0xbea28c58	-0.317477
62	0xbe8287a3	-0.25494108
63	0xbe3684f7	-0.1782416
64	0xbe949d26	-0.29026145
65	0x3c94cbf3	0.018163657
66	0x3e155268	0.14582217
67	0xbe2925b7	-0.16518293
68	0xbc812e2a	-0.015769083
69	0xbe719389	-0.23591436
70	0xbeb1b25a	-0.34706384
71	0x3caebe9e	0.021331128
72	0xbe2a8603	-0.16652684
73	0xbf18b9a6	-0.5965828
74	0xbf08afc8	-0.5339322
75	0xbc038156	-0.008026442
76	0x3e33fa53	0.1757596
77	0xbe2ecc06	-0.17070016
78	0xbd83d57f	-0.064372055
79	0xbeae0be9	-0.33993462
80	0xbdfd877e	-0.12379359
81	0xbd2e1585	-0.04250099
82	0xbdefa32f	-0.11701047
83	0xbf036536	-0.5132631
84	0xbe7559d9	-0.23960055
85	0xbdee4791	-0.11634744
86	0xbca3716f	-0.01995155
87	0x3dedb528	0.116068184
88	0x3abefbf9	0.0014570943
89	0x3e694e60	0.22783804
90	0xbe840e02	-0.25791937
91	0xbe135882	-0.14389232
92	0x3c88bf00	0.016692638
93	0xbe56581c	-0.20932049
94	0xbd103817	-0.03520974
95	0xbd292796	-0.041297518
96	0xbd6815de	-0.05666148
97	0xbeaf43a5	-0.34231296
98	0xbe023fc5	-0.12719639
99	0x3e2dad1c	0.16960567
100	0xbdf88ce7	-0.1213625
101	0xbd56ed43	-0.052472364
102	0x3d4b3222	0.049608357
103	0x3e936148	0.28785157
104	0xbe421499	-0.1895317
105	0xbeab4d38	-0.3345735
106	0xbe28928f	-0.16462158
107	0x3dd16b6a	0.10225566
108	0xbec38cee	-0.38193458
109	0xbe826bd7	-0.254729
110	0xbe7732e2	-0.24140504
111	0x3dabef6e	0.08395277
112	0xbe63512b	-0.22198932
113	0xbc48814f	-0.012237861
114	0xbe8ace0b	-0.27110323
115	0x3e252ab2	0.16129568
116	0xbe78f4dc	-0.24312156
117	0x3d9bde0f	0.07610714
118	0xbe40edf1	-0.18840767
119	0xbdf69df6	-0.120418474
120	0xbe0dce2d	-0.13848181
121	0xbc6efa34	-0.01458602
122	0xbdc7aaec	-0.09749398
123	0xbec38976	-0.38190812
124	0xbe288b82	-0.16459468
125	0xbebde055	-0.37085214
126	0x3dcd3f2a	0.10021813
127	0xbee1a313	-0.44069728
128	0xbeb1aa93	-0.3470045
129	0xbc407cd8	-0.011748515
130	0xbe1249dd	-0.14285989
131	0xbe455bc1	-0.19273283
132	0xbe91f227	-0.2850506
133	0xbdafcbe7	-0.08583813
134	0xbf203947	-0.625874
135	0xbdac5bc2	-0.08415939
136	0xbcd59cf1	-0.026075812
137	0xbe81b6b3	-0.253347
138	0xbeafae75	-0.34312788
139	0x3c4135cd	0.011792612
140	0x3d4b6e2a	0.049665608
141	0xbe4f9e7d	-0.20275302
142	0xbda01d39	-0.07818074
143	0xbee7b050	-0.45251703
144	0xbe9d4176	-0.30714005
145	0xbe3f5016	-0.18682894
146	0xbe4e4d1a	-0.201466
147	0xbcf062d3	-0.029343998
148	0xbd5c7bda	-0.05382905
149	0x3c50d240	0.01274544
150	0x3d87c568	0.06629449
151	0xbebdf486	-0.3710062
152	0x3d868637	0.06568568
153	0xbe476ae0	-0.19474363
154	0xbee88642	-0.4541493
155	0x3d93e5cc	0.07221565
156	0xbe9a5c7b	-0.30148682
157	0xbea5caf0	-0.32381392
158	0x3b1a51cf	0.0023547297
159	0xbebde307	-0.3708727
160	0xbe9ce8ab	-0.30646262
161	0x3c0e4a1c	0.008684661
162	0xbe1322ef	-0.14368795
163	0xbe1213fc	-0.14265436
164	0xbf102de2	-0.5632001
165	0xbd8cf6ce	-0.06883012
166	0xbe5dff93	-0.21679525
167	0xbf0c72ba	-0.5486256
168	0xbe456c24	-0.19279534
169	0xbf07041d	-0.5274065
170	0xbe8d037f	-0.2754173
171	0xbeabfc40	-0.3359089
172	0xbe87d8a5	-0.26532474
173	0xbe9938a0	-0.29926014
174	0xbe36d4e8	-0.17854655
175	0xbe2d997c	-0.16953081
176	0xbe7b2eb2	-0.24529532
177	0xbed83f13	-0.42235622
178	0xbd2444bb	-0.04010461
179	0xbefde2e1	-0.49587157
180	0xbea888ae	-0.32916778
181	0xbe005c3c	-0.12535185
182	0x3c88f105	0.01671649
183	0xbe435d1a	-0.19078484
184	0xbd8d3428	-0.06894714
185	0xbe57bcd2	-0.21068123
186	0xbdff7566	-0.12473564
187	0xbc769546	-0.015050238
188	0xbe829e5c	-0.25511444
189	0xbee85e99	-0.45384672
190	0xbe217ad1	-0.15769507
191	0xbe33224c	-0.17493552
192	0xbe842032	-0.25805813
193	0xbd89fcce	-0.06737672
194	0x3eb28ca0	0.34872913
195	0xbe886ca5	-0.2664539
196	0xbbe0549f	-0.006846025
197	0xbeb35bc5	-0.35030952
198	0xbe6b50e9	-0.22980084
199	0xbea55b03	-0.32296
200	0xbeaadfbc	-0.3337382
201	0xbeb0d173	-0.34534797
202	0xbd9b8914	-0.07594505
203	0xbeb315e1	-0.3497763
204	0xbece5a41	-0.40303233
205	0x3d3ff29f	0.04686224
206	0xbd4303da	-0.047611095
207	0xbea5b612	-0.3236547
208	0xbee2b641	-0.44279674
209	0x3d9066ef	0.07050883
210	0xbf10a086	-0.5649494
211	0xbe96b8af	-0.29437777
212	0xbebc7fab	-0.36816153
213	0xbe62f6bf	-0.22164439
214	0xbd8caeff	-0.06869315
215	0x3e23e451	0.16005065
216	0xbe4164f1	-0.18886162
217	0xbdc34541	-0.095346935
218	0xbea9478b	-0.33062395
219	0xbbdafe96	-0.006683181
220	0xbd434662	-0.047674544
221	0xbd428fc9	-0.047500405
222	0xbe4877dc	-0.19576973
223	0xbd984ad5	-0.07436148
224	0xbe2fce59	-0.17168559
225	0xbed2b6a5	-0.41154972
226	0x3c323e43	0.010879102
227	0x3d2838b2	0.041069694
228	0xbe05c150	-0.13062024
229	0xbeaae01e	-0.33374113
230	0xbe8027aa	-0.2503026
231	0xbe9c90a5	-0.30579105
232	0xbd093c89	-0.033504996
233	0xbec5e994	-0.38654768
234	0xbd4af1e6	-0.0495471
235	0xbdd4ad81	-0.10384656
236	0xbeee986d	-0.46600667
237	0xbe59f373	-0.21284275
238	0xbea1a2b2	-0.3156944
239	0xbea62f64	-0.3245803
240	0xbe1f53a9	-0.15559258
241	0x3d82a934	0.06379929
242	0xbe9588c7	-0.29205915
243	0xbe52f8fb	-0.20602791
244	0xbe9475d4	-0.28996146
245	0xbe9bc8b7	-0.3042657
246	0xbe8cabf4	-0.2747494
247	0xbdcb3ca3	-0.09923675
248	0xbbc28370	-0.0059360787
249	0x3d8890e9	0.066682644
250	0xbe0dbce7	-0.13841592
251	0xbe4d853e	-0.20070359
252	0xbcb041b3	-0.021515703
253	0xbe52a5fe	-0.20571133
254	0xbe83ce79	-0.25743464
255	0xbdf4759c	-0.11936495

lstm2.weight_ih_l0 f4 [256, 128]
0	0x3e9da2b3	0.30788192
1	0xbc1434a6	-0.0090457555
2	0xbeddcc15	-0.43319765
3	0x3ed109da	0.4082783
4	0x3ea71667	0.3263428
5	0xbe4438f3	-0.1916235
6	0xbf07f53e	-0.53108585
7	0x3e684738	0.22683418
8	0x3ba14cef	0.0049225013
9	0xbdb0f910	-0.08641255
10	0x3e7b87e9	0.24563564
11	0xbf3fdb34	-0.7494385
12	0xbc8df9e6	-0.017331075
13	0x3abb304c	0.0014281361
14	0xbea904c1	-0.3301144
15	0x3e9fc594	0.31205428
16	0xbd99b4d5	-0.07505194
17	0x3e85515b	0.26038632
18	0x3de4cf63	0.111723684
19	0xbf3b286d	-0.7310856
20	0xbe887111	-0.26648763
21	0x3c8ee5bc	0.01744353
22	0x3c17e2d6	0.0092703905
23	0xbdf20345	-0.1181703
24	0x393bafc4	0.00017899188
25	0x3defe66f	0.117138736
26	0xbe65ee06	-0.2245408
27	0x3e46831f	0.19385956
28	0x3f159730	0.5843382
29	0x3edb1e04	0.42796338
30	0x3f682588	0.9068227
31	0xbedb9cf8	-0.42893195
32	0x3f0de4d1	0.5542727
33	0xbc934465	-0.017976949
34	0x3debac8e	0.115075216
35	0x3ecf78c1	0.40521815
36	0x3f07a027	0.5297875
37	0x3ea5952c	0.32340372
38	0x3c61a436	0.013772061
39	0xbec09ee2	-0.37621218
40	0xbed46a05	-0.41487136
41	0x3e092592	0.13393238
42	0xbf03f227	-0.5154137
43	0x3eee4961	0.4654036
44	0xbe8e4f49	-0.27794865
45	0xbeb6f276	-0.35731858
46	0xbdf36ac4	-0.11885598
47	0x3e1a77cb	0.1508476
48	0x3e25e1b0	0.16199374
49	0x3eb54cde	0.35410208
50	0x3ef57eb9	0.47948244
51	0x3d061a82	0.032740124
52	0xbee1b7b3	-0.44085464
53	0xbe19c3dc	-0.1501612
54	0x3d967f3d	0.073484875
55	0xbf1a7445	-0.60333663
56	0x3e6c619e	0.23084113
57	0x3ed32b3d	0.41243926
58	0xbc684bff	-0.014178275
59	0xbd446a36	-0.047952853
60	0x3f1da4e7	0.61579746
61	0xbe76bcd9	-0.24095477
62	0xbf1c7b38	-0.61125517
63	0x3edec46c	0.43509233
64	0x3a05df52	0.00051068247
65	0x3e9707d6	0.29498166
66	0x3eb8eb59	0.36117056
67	0xbed3c3ce	-0.41360325
68	0x3dc93407	0.098243766
69	0x3e7fd1ee	0.24982426
70	0xbe3545dd	-0.17702432
71	0xbf30aaae	-0.69010437
72	0x3f03c350	0.514699
73	0xbbb2ccad	-0.005456528
74	0xbefa8ba6	-0.48934668
75	0x3ebabb18	0.36470866
76	0x3f1583a1	0.58403975
77	0xbd9872f8	-0.074438035
78	0xbea3f3d8	-0.32021976
79	0xbe746983	-0.23868375
80	0x3ecd0ee5	0.40050426
81	0x3ed99c69	0.42502144
82	0xbe1f8681	-0.15578653
83	0xbe22f749	-0.15914644
84	0xbe742a09	-0.2384416
85	0x3b100834	0.0021977546
86	0xbe333b3b	-0.17503063
87	0xbe36bc9a	-0.17845383
88	0x3e76c0af	0.2409694
89	0x3ea84d3b	0.32871422
90	0xbeaa2127	-0.33228418
91	0x3cb90831	0.022586914
92	0x3f05aed7	0.5221991
93	0x3d47a890	0.048744738
94	0x3f006520	0.50154305
95	0xbbc2d993	-0.005946347
96	0xbeb960a5	-0.36206546
97	0xbe291342	-0.16511253
98	0xbdd63d32	-0.10460891
99	0xbf2ca4a7	-0.6743874
100	0x3f13106b	0.57446927
101	0x3ed06579	0.40702417
102	0x3ecb7485	0.39737335
103	0x3f23f604	0.64047265
104	0xbebd0069	-0.36914375
105	0xbe8efba5	-0.27926365
106	0xbdfdf13f	-0.1239953
107	0xbf0121cf	-0.5044221
108	0x3ec9171a	0.39275438
109	0x3dfcd3a9	0.123450585
110	0x3ef9666f	0.48710963
111	0x3f161386	0.5862354
112	0xbcb5586c	-0.02213689
113	0x3dd22240	0.10260439
114	0xbe63a162	-0.22229531
115	0x3edaaa80	0.42708206
116	0x3ebf82f9	0.37404612
117	0xbf16a97b	-0.58852357
118	0xbec7cf61	-0.39025405
119	0x3e8066b1	0.25078347
120	0x3f05f65c	0.5232904
121	0x3f5a6565	0.85310966
122	0xbed279f8	-0.4110868
123	0x3d99db6d	0.07512555
124	0xbf2c9649	-0.67416817
125	0x3e256203	0.1615067
126	0xbf265bbe	-0.6498374
127	0xbd3aecac	-0.045635864
128	0x3f10d2f2	0.56571877
129	0xbe8399ce	-0.2570328
130	0xbdde12ab	-0.108434044
131	0x3e72926b	0.23688667
132	0xbe580028	-0.2109381
133	0x3e0b47fc	0.13601679
134	0xbe9fb16e	-0.31190056
135	0xbd7352b8	-0.05940506
136	0x3dae5a6d	0.08513341
137	0xbdb421d0	-0.08795512
138	0x3e0b885e	0.13626239
139	0x3e0338c1	0.12814619
140	0xbe96b9b4	-0.29438555
141	0xbe9e18d5	-0.3087832
142	0x3ccee5fa	0.025256146
143	0xbbd712ed	-0.0065635354
144	0xbe355c12	-0.17710903
145	0x3e0a3bab	0.13499324
146	0xbc17f6e2	-0.00927517
147	0x3dc9f49a	0.09861107
148	0xbdd12853	-0.10212769
149	0xbe09e0a1	-0.13464595
150	0xbbc94f16	-0.006143461
151	0xbccf0858	-0.025272533
152	0xbd3df926	-0.046380185
153	0xbe3bf38a	-0.18354622
154	0xbda33f55	-0.07971064
155	0x3e2a2e81	0.16619302
156	0x3e3786ce	0.17922518
157	0x3ecd510f	0.40100905
158	0xbe12dc3b	-0.14341824
159	0xbddc536c	-0.10758099
160	0x3ea5756f	0.32316157
161	0xbe301232	-0.17194441
162	0x3df8e3bb	0.12152811
163	0x3e337f75	0.1752909
164	0xbd8274dd	-0.06369946
165	0xbc939175	-0.018013695
166	0xbcae916d	-0.021309579
167	0xbe6c0297	-0.23047863
168	0xbec1e4b6	-0.37869805
169	0x3b1cc174	0.0023919018
170	0x3d025f1e	0.031828992
171	0x3ee14468	0.43997502
172	0x3ccab4dd	0.024744445
173	0xbd873eb1	-0.06603754
174	0x3e9aa6bd	0.30205336
175	0xbd8d1b9c	-0.06890032
176	0x3e2c7352	0.16840866
177	0x3dd0ce6c	0.10195622
178	0x3e5d0200	0.21582794
179	0x3e0f6b39	0.14005746
180	0xbd6afe37	-0.057371344
181	0x3e014c2b	0.12626712
182	0x3d5ec76f	0.054389413
183	0xbdac5956	-0.08415477
184	0xbd1f780d	-0.03893285
185	0x3dd46b4b	0.10372027
186	0x3e1c95cf	0.15291522
187	0xbbe4bd3e	-0.0069805672
188	0x3ee3263c	0.44365108
189	0xbd262eb9	-0.040571902
190	0xbd8c521a	-0.06851597
191	0x3ec0a39b	0.3762482
192	0x3e759c86	0.2398549
193	0x3dbac5ea	0.0911978
194	0xbe549b02	-0.20762256
195	0xbedd1b2c	-0.43184793
196	0xbe34f2ba	-0.17670718
197	0xbd81edd5	-0.06344191
198	0x3d8740c7	0.06604152
199	0x3e67c37b	0.22633164
200	0x3e98c562	0.2983809
201	0xbe3b88d3	-0.18313913
202	0xbef41d51	-0.47678617
203	0x3df6fb14	0.12059608
204	0x3e9ad66d	0.3024172
205	0xbe60c54a	-0.2195026
206	0xbe1ebfc1	-0.15502836
207	0x3d428536	0.04749032
208	0x3e425360	0.18977118
209	0x3d7e901d	0.062149156
210	0xbe33b712	-0.17550305
211	0xbe37a7b6	-0.1793507
212	0xbeb61222	-0.3556071
213	0x3eb06a69	0.34456185
214	0x3dd20231	0.10254324
215	0xbd945997	-0.072436504
216	0xbd2022fe	-0.03909587
217	0xbe0f5463	-0.13997035
218	0x3d496a63	0.049173724
219	0x3eeafec4	0.45897496
220	0x3ec3f1c3	0.38270387
221	0x3b06e5bf	0.0020583717
222	0xbd5696fe	-0.05239009
223	0x3e0028e3	0.12515597
224	0xbe9c6b82	-0.30550772
225	0x3de44969	0.111468144
226	0xbe179136	-0.14801487
227	0x3db79233	0.08963432
228	0xbbe80152	-0.0070802355
229	0x3e4ff40d	0.20307942
230	0x3e45569e	0.19271323
231	0x3e076ee9	0.13225903
232	0xbc30c3a8	-0.010788836
233	0xbea7fa56	-0.3280818
234	0xbee142b2	-0.43996197
235	0x3df472c0	0.11935949
236	0x3d0d0c96	0.03443583
237	0xbe91a8ca	-0.28449088
238	0x3e1182bf	0.14210032
239	0x3d56fccc	0.05248718
240	0xbe6a9f3f	-0.2291231
241	0x3e197958	0.14987695
242	0xbdda5898	-0.10661429
243	0xbc5b674a	-0.013391325
244	0x3db10c61	0.08644939
245	0xbe512bbe	-0.20426843
246	0xbe1e1aaf	-0.15439866
247	0x3f1031eb	0.5632617
248	0xbe858440	-0.2607746
249	0xbe5c559d	-0.21517034
250	0xbe964fa7	-0.29357645
251	0xbe3a733a	-0.18208018
252	0x3d6d3846	0.057914995
253	0x3e3a665d	0.18203111
254	0x3db33ae6	0.08751468
255	0xbe004b8f	-0.12528823

lstm2.weight_hh_l0 f4 [256, 64]
0	0xbe8f70a9	-0.2801564
1	0xbed43373	-0.41445503
2	0xbe9083dd	-0.28225604
3	0xbdcea5c2	-0.100902095
4	0xbd829166	-0.06375389
5	0x3d2f9f96	0.042876802
6	0xbdf601bf	-0.12012052
7	0xbec0608f	-0.37573668
8	0x3e167f60	0.14697027
9	0x3e84b8d9	0.25922278
10	0x3e1759b8	0.14780319
11	0x3e5463e8	0.20741236
12	0xbb48963e	-0.003060713
13	0x3e318521	0.17335941
14	0x3e2a94be	0.16658303
15	0x3d0b4d2a	0.034009136
16	0x3c6ffdf1	0.014647947
17	0xbd830d85	-0.06399063
18	0x3d38cd00	0.04511738
19	0x3e40cdca	0.18828502
20	0xbe5a8702	-0.21340564
21	0xbd5a44fe	-0.053288452
22	0xbce195ba	-0.027537216
23	0xbdf4ae36	-0.119472906
24	0xbda617d3	-0.08110013
25	0x3d933bda	0.0718915
26	0x3c0f7562	0.008756014
27	0xbd4adc0d	-0.049526263
28	0x3dd085a5	0.10181741
29	0x3c6e0b04	0.0145289935
30	0xbb23c5cc	-0.0024989722
31	0x3e9f1dd5	0.31077448
32	0x3d5ce7a2	0.05393184
33	0x3ba8c376	0.005150254
34	0x3d07d680	0.033163548
35	0xbd7a8bb0	-0.061168373
36	0x3e28dc6b	0.16490333
37	0x3b9c6e4c	0.0047738906
38	0x3dd1baa0	0.10240674
39	0xbd49bb39	-0.049250815
40	0xbe70ed25	-0.23527963
41	0xbdf23365	-0.11826209
42	0x3d1c534e	0.038165383
43	0xbdb42984	-0.08796981
44	0xbe3d7c71	-0.18504502
45	0xbc7f53ff	-0.015583991
46	0xbca8ba68	-0.020596698
47	0xbdf47dea	-0.11938079
48	0x3eba5649	0.36393955
49	0x3d3e1413	0.046405863
50	0xbe6c7883	-0.23092847
51	0xbe70a3f5	-0.23500045
52	0xbd911414	-0.07083908
53	0x3d921444	0.071327716
54	0x3e874f8b	0.26427874
55	0x3e8275d6	0.25480527
56	0xbdedccb4	-0.1161131
57	0x3de68516	0.11255853
58	0xbb326d9a	-0.0027225972
59	0x3cbf4bcd	0.023351574
60	0x3e020684	0.12697798
61	0x3db1eaaa	0.08687337
62	0xbd8be8bf	-0.06831502
63	0x3dc1b256	0.09457843
64	0xbe8ef080	-0.27917862
65	0xbdefd2b2	-0.11710109
66	0xbe115730	-0.14193416
67	0x3e265fae	0.16247436
68	0xbba046be	-0.0048912456
69	0x3e54334d	0.20722695
70	0xbd35754d	-0.04430132
71	0x3d7e615f	0.06210458
72	0xbc541b10	-0.012945905
73	0x3c64e62d	0.013970894
74	0x3cb15e4e	0.021651413
75	0x3cf53347	0.029931678
76	0x3cde1de7	0.027113868
77	0xbd8277b2	-0.06370486
78	0x3d9d0c83	0.07668402
79	0x3e4f4be3	0.20243792
80	0x3e9be14c	0.30445325
81	0x3e0e3c65	0.13890226
82	0x3e94f33a	0.29091817
83	0x3e785181	0.24249841
84	0x3d50668b	0.050879043
85	0xbdb7aa78	-0.08968061
86	0xbeb14ea1	-0.34630302
87	0x3d00e303	0.031466495
88	0x3d81c284	0.06335929
89	0x3e03f6f2	0.12887171
90	0xbc29c150	-0.010361031
91	0x3d934270	0.07190406
92	0x3dd3be4e	0.10339032
93	0xbc8a0c61	-0.016851606
94	0x3d2fc96c	0.0429167
95	0xbe05e949	-0.13077272
96	0xbce1eb6c	-0.027578078
97	0x3e1b7e3e	0.15184876
98	0xbcd3171f	-0.025767861
99	0xbd557a87	-0.052118804
100	0xbdc68459	-0.09693212
101	0x3e157149	0.14593996
102	0xbd31a20e	-0.043367438
103	0x3d330234	0.043703273
104	0xbdcd74b5	-0.10032026
105	0xbe6c4c16	-0.230759
106	0xbd1c0ee3	-0.038100135
107	0xbd2be2a3	-0.041964184
108	0xbab3625b	-0.0013685928
109	0xbe58d2b4	-0.21174127
110	0xbdb44e97	-0.08804052
111	0xbc6f314b	-0.014599155
112	0xbcb0499d	-0.021519477
113	0x3dce639b	0.10077592
114	0xbcd7a14d	-0.026322031
115	0xbdd83e94	-0.10558811
116	0xbd84f961	-0.06492878
117	0x3daf72d3	0.08566823
118	0xbd8d9ea6	-0.069150254
119	0xbd0e42d7	-0.034731712
120	0xbd8a4cf5	-0.0675296
121	0x3d507238	0.050890177
122	0x3bae6bed	0.0053229243
123	0xbebdb42c	-0.37051523
124	0xbe0bb60c	-0.13643664
125	0xbd045691	-0.03230912
126	0xbe477c4b	-0.19481008
127	0x3e17ee68	0.14837039
128	0xbeb046af	-0.34428927
129	0xbdb66bb1	-0.08907259
130	0xbe118af5	-0.14213164
131	0x3cf4fc1c	0.029905371
132	0xbe44d76d	-0.19222803
133	0x3d1b9965	0.037988085
134	0x3e320625	0.17385156
135	0xbe212830	-0.15737987
136	0xbd83e34e	-0.06439839
137	0x3e0c4641	0.13698675
138	0x3c961d18	0.01832442
139	0xbe4b06e7	-0.19826852
140	0xbec1b423	-0.37832746
141	0x3d4bb04d	0.04972868
142	0xbdae5da8	-0.08513957
143	0x3e666392	0.2249892
144	0x3e2a6770	0.16641021
145	0x3e4c3b43	0.19944482
146	0xbd96d6ba	-0.073651746
147	0x3d1be6d5	0.038061935
148	0x3e4f3a1d	0.20237012
149	0xbdda5581	-0.1066084
150	0xbeea43ac	-0.45754755
151	0x3e95183b	0.2912005
152	0x3c261eab	0.010139148
153	0x3ad42253	0.0016184546
154	0xbe4e21e5	-0.20130117
155	0xba93774e	-0.0011250766
156	0x3cacbad2	0.021085177
157	0x3e7a0988	0.24417698
158	0x3d9c6a75	0.076374926
159	0xbd5d2ece	-0.053999715
160	0x3d98300b	0.074310385
161	0x3dce223f	0.10065126
162	0x3cbb7a79	0.022885548
163	0x3eb89e17	0.36058113
164	0xbe586601	-0.21132661
165	0xbd774fd0	-0.06037885
166	0xbd4af8b6	-0.049553595
167	0xbc48f769	-0.012266018
168	0xbd8fc882	-0.07020666
169	0xbd620ab7	-0.055186
170	0xbae8f048	-0.0017771805
171	0x3b17cffb	0.0023164738
172	0x3d89f5d7	0.06736343
173	0xbeb977b8	-0.3622415
174	0xbd9856db	-0.07438441
175	0xbe9e4be3	-0.30917272
176	0xbd1133d4	-0.035449818
177	0xbdd093b1	-0.1018442
178	0x3dc96175	0.098330416
179	0xbdcca59f	-0.09992527
180	0x3dcd2c1c	0.10018179
181	0x3e0b66c9	0.13613428
182	0xbe52acba	-0.20573702
183	0xbdf7d3d5	-0.12100951
184	0xbeb7d71a	-0.35906297
185	0xbe9c0b82	-0.3047753
186	0xbe0c8fba	-0.13726702
187	0xbe8177ed	-0.2528681
188	0xbe49a552	-0.19691971
189	0x3dc09c21	0.09404779
190	0x3bd75ce2	0.006572352
191	0xbddc0829	-0.10743744
192	0x3e3fafee	0.18719456
193	0xbd02aa26	-0.031900547
194	0xbce63bf3	-0.028104758
195	0xbd60b4fc	-0.0548601
196	0x3c791aef	0.015204175
197	0x3e91c702	0.28472143
198	0xbe578fdd	-0.21050973
199	0xbe4e7a8d	-0.20163937
200	0xbc95157a	-0.018198717
201	0x3dd0ea22	0.10200907
202	0xbdb35826	-0.08757047
203	0xbe5d8c71	-0.21635605
204	0x3e2f1484	0.1709767
205	0xbee50a2e	-0.4473433
206	0xbcd195c5	-0.025584111
207	0xbea1bbf3	-0.31588706
208	0xbebef5d3	-0.37296924
209	0xbe09de1d	-0.13463636
210	0xbd9e50f1	-0.07730282
211	0xbe27c8b1	-0.16385151
212	0xbe0cfb0c	-0.13767642
213	0x3e25f749	0.16207613
214	0xbdd2d04f	-0.10293638
215	0x3c959495	0.018259326
216	0xbe12220b	-0.14270799
217	0xbe090232	-0.13379744
218	0x3e2380db	0.15967123
219	0xbe2482e7	-0.1606556
220	0xbe9c312e	-0.3050627
221	0xbe172fef	-0.14764379
222	0xbe0ec7e1	-0.13943435
223	0x3d6297f0	0.05532068
224	0xbd19935c	-0.03749405
225	0xbcc324e5	-0.023821304
226	0xbda52120	-0.08062959
227	0xbe896e13	-0.26841792
228	0xbdfb8a9e	-0.122822985
229	0x3ebb06a4	0.36528504
230	0xbe4c22da	-0.1993517
231	0x3ec7affb	0.3900145
232	0xbe164ae0	-0.14677
233	0x3e15bfa3	0.14623885
234	0xbe3d1850	-0.18466306
235	0x3ead2be0	0.33822536
236	0x3daec0cb	0.08532866
237	0x3dd0be4d	0.10192547
238	0xbd604f1b	-0.05476294
239	0xbcfd58e6	-0.03092618
240	0xbebeb928	-0.37250638
241	0x3e7d59a7	0.24741231
242	0x3caf7d24	0.021421976
243	0x3e9dacbf	0.30795857
244	0xbdc79319	-0.097448535
245	0xbd0edb5f	-0.034877177
246	0x3e4018b1	0.18759419
247	0xbd8802e4	-0.06641176
248	0x3d96c28b	0.07361325
249	0x3e812921	0.2522669
250	0x3e524d50	0.20537305
251	0x3e8bc1ff	0.27296445
252	0xbe9a1276	-0.3009221
253	0xbea26172	-0.3171497
254	0xbea312d1	-0.31850293
255	0x3e981a1d	0.29707423

lstm2.bias_ih_l0 f4 [256]
0	0xbdb2c5fa	-0.08729167
1	0xbe40d0f9	-0.18829717
2	0xbdfb2e8d	-0.12264738
3	0xbd9cae4f	-0.07650434
4	0xbeb9ae4f	-0.362658
5	0xbe45d6d8	-0.19320238
6	0xbe3c3e02	-0.18383029
7	0xbeac8d7b	-0.3370169
8	0xbe1ff0d3	-0.15619211
9	0xbf1da11f	-0.61573976
10	0xbe5cfdbb	-0.21581165
11	0xbe1bb68c	-0.15206355
12	0xbc56a0d9	-0.0130998725
13	0xbe492acb	-0.1964523
14	0xbe752fa5	-0.23943956
15	0x3b25f9e4	0.0025325948
16	0x3e125886	0.14291582
17	0xbe3dbc8d	-0.18528958
18	0xbea59725	-0.32341877
19	0xbe8e94af	-0.27847812
20	0xbe0178a0	-0.12643671
21	0xbe85f2f0	-0.2616191
22	0xbe9008a5	-0.28131595
23	0xbeb205e1	-0.3477011
24	0xbecd145a	-0.4005459
25	0xbf12ed45	-0.57393295
26	0xbe66e2a6	-0.22547397
27	0xbe0cd0ac	-0.13751477
28	0xbd9d1d75	-0.07671634
29	0xbe7a02ed	-0.24415179
30	0xbd559c39	-0.05215094
31	0xbec02557	-0.37528488
32	0xbef2b028	-0.47400022
33	0xbed9f20d	-0.42567483
34	0x3ccdb70c	0.025111698
35	0xbe98fc44	-0.29879963
36	0xbf3a1fd3	-0.7270481
37	0xbca2e484	-0.019884355
38	0xbcc8b8fb	-0.024502268
39	0xbe1ee15c	-0.15515655
40	0xbe17c132	-0.14819792
41	0xbe33102c	-0.17486638
42	0xbf1ed2d5	-0.62040454
43	0xbd1cffdc	-0.038329944
44	0x3da3cef6	0.07998459
45	0xbe6fc1e5	-0.23413809
46	0xbe92c063	-0.28662404
47	0xbea33fe3	-0.3188468
48	0xbdc59b9d	-0.096488215
49	0xbe133f36	-0.14379582
50	0xbdb8b44e	-0.090187654
51	0xbe05c2ef	-0.13062643
52	0xbe80a5c7	-0.25126478
53	0xbe85cf45	-0.26134697
54	0xbe630716	-0.22170672
55	0xbe515572	-0.20442751
56	0xbddbed58	-0.10738629
57	0xbedbef11	-0.4295583
58	0xbec59cb5	-0.3859612
59	0x3d6f65ac	0.05844657
60	0xbbc6539b	-0.006052447
61	0x3d1202d2	0.03564722
62	0xbcfb64a9	-0.030687647
63	0xbde454be	-0.11148976
64	0xbe9a68a6	-0.30157965
65	0xbe5708b5	-0.20999415
66	0xbe43de6a	-0.19127813
67	0xbe206bcf	-0.15666126
68	0xbf1534a3	-0.5828344
69	0xbe168e7f	-0.14702795
70	0xbf0b8d91	-0.5451289
71	0xbe9131e4	-0.28358376
72	0xbec17138	-0.37781692
73	0xbf053042	-0.5202676
74	0xbe911102	-0.28333288
75	0xbe32f72e	-0.17477104
76	0x3d968a0a	0.073505476
77	0xbe93cded	-0.28868046
78	0xbda3e58d	-0.08002768
79	0xbf0188ab	-0.50599164
80	0xbf0243ca	-0.5088469
81	0xbede6998	-0.43439937
82	0xbe9ce4ff	-0.3064346
83	0xbe4a4d45	-0.19756038
84	0xbf00df93	-0.5034115
85	0xbeac86a1	-0.33696464
86	0xbdf9dff9	-0.122009225
87	0xbf5af581	-0.8553086
88	0xbeeffdc1	-0.46873286
89	0xbef3f1dd	-0.47645465
90	0xbe84a7a9	-0.25909165
91	0xbed05e02	-0.40696722
92	0xbecf0a3a	-0.4043749
93	0xbebdc8db	-0.37067303
94	0xbe972920	-0.29523563
95	0xbec222c9	-0.37917164
96	0xbeed4999	-0.46345213
97	0xbeb6b959	-0.35688284
98	0x3e2059d3	0.15659265
99	0xbee48938	-0.4463594
100	0xbf269fac	-0.6508739
101	0xbea9fcf0	-0.33200788
102	0xbe2bbae5	-0.16770513
103	0xbeafdc0d	-0.34347573
104	0xbebfa10d	-0.3742756
105	0xbf235fa1	-0.63817793
106	0xbed17fea	-0.40917903
107	0xbe1694c6	-0.1470519
108	0x3df9fd32	0.12206496
109	0xbf3642b0	-0.7119551
110	0xbef44570	-0.47709227
111	0xbec04dba	-0.375593
112	0xbd6821fc	-0.056673035
113	0xbec5b1e8	-0.38612294
114	0xbe1a710c	-0.15082186
115	0xbbe5175d	-0.0069913105
116	0xbf076bb2	-0.52898705
117	0xbe435768	-0.19076312
118	0xbf1d2a03	-0.6139223
119	0xbe7b3e63	-0.24535517
120	0xbf148522	-0.58015645
121	0xbf337cd3	-0.7011234
122	0xbf153e21	-0.58297926
123	0xbefe022b	-0.4961103
124	0x3cf76779	0.030200707
125	0xbe0784dd	-0.13234277
126	0xbe8f9625	-0.2804424
127	0xbeb4e3d5	-0.35330072
128	0x3cb50b7b	0.0221002
129	0xbdc2c18a	-0.09509571
130	0xbdd3ed79	-0.10348029
131	0x3e0e0da8	0.13872397
132	0xbd829cd4	-0.06377569
133	0xbde7d15e	-0.113192305
134	0x3d5c195f	0.053735133
135	0xbd6279e0	-0.05529201
136	0x3d8fc518	0.070200145
137	0xbc4fc4af	-0.01268117
138	0x3e0eb475	0.13936026
139	0x3d66cf8b	0.056350272
140	0xbd95f154	-0.0732142
141	0x3dc9eeb5	0.09859983
142	0x3d1f3321	0.03886712
143	0xbd49032a	-0.049075283
144	0xbd275fdb	-0.0408629
145	0x3bb8c3ba	0.005638567
146	0x3ccab079	0.024742352
147	0x3dd331de	0.10312246
148	0xbd25cce4	-0.040478602
149	0xbd0577aa	-0.032584824
150	0x3e1f723e	0.15570924
151	0xbd8aff4f	-0.067869775
152	0x3d7924f6	0.060826264
153	0xbbe428a6	-0.0069628535
154	0xbd8ba3b0	-0.0681833
155	0xbcb95c7e	-0.022627112
156	0x3cc9cdcc	0.024634264
157	0x3d065ebb	0.032805186
158	0x3b0c486b	0.002140547
159	0x3e03cb27	0.12870465
160	0x3d86772d	0.065657
161	0xbd22f66e	-0.039785795
162	0x3e2a0f09	0.16607298
163	0xbd348772	-0.044074483
164	0x3d98c3b7	0.07459205
165	0xbd309826	-0.04311385
166	0x3d329a1b	0.043603998
167	0xbc929ae7	-0.017896129
168	0x3c37e85e	0.011224834
169	0x3db54bfc	0.088523835
170	0xbd321cbd	-0.04348444
171	0xbe015a85	-0.12632187
172	0xbdaa2a48	-0.08308846
173	0x3cb2bbe5	0.02181811
174	0x3ddc2245	0.10748724
175	0x3daeceaf	0.085355155
176	0x3cd7bced	0.026335204
177	0xbd1e2922	-0.038613446
178	0x3d7369fd	0.05942725
179	0xbd275470	-0.04085201
180	0xbc79a35a	-0.0152367
181	0x3c4bb63e	0.012433587
182	0x3d924856	0.07142703
183	0x3dbb85de	0.091563925
184	0x3c2eee01	0.010676862
185	0x3c47bb40	0.01219064
186	0xbd8e7921	-0.06956697
187	0x3db0d583	0.08634474
188	0x3e5b4cda	0.21416035
189	0x3e4d8f67	0.20074235
190	0x3c3b256d	0.011422497
191	0x3d9f7ea9	0.077878304
192	0xbd2b2932	-0.041787334
193	0xbdc70d40	-0.09719324
194	0xbdf8575e	-0.12126039
195	0x3da3ea36	0.080036566
196	0xbeba0c88	-0.36337686
197	0xbe9a02b7	-0.30080196
198	0xbdf63980	-0.12022686
199	0xbed7eeea	-0.42174464
200	0xbdf35930	-0.118822455
201	0xbf180ed2	-0.59397614
202	0xbdf3e21e	-0.11908363
203	0xbe35f294	-0.17768317
204	0xbd8cf5c6	-0.06882815
205	0xbea7ef82	-0.32799917
206	0xbea12484	-0.31473172
207	0x3c86ce23	0.016455716
208	0x3df59752	0.11991753
209	0xbe8be49c	-0.27322853
210	0xbec6d1bc	-0.3883189
211	0xbeb402b6	-0.35158318
212	0xbe09a26d	-0.13440867
213	0xbe813e66	-0.2524292
214	0xbe811023	-0.25207624
215	0xbeaf3ceb	-0.34226164
216	0xbeebf404	-0.46084607
217	0xbf034e4c	-0.51291347
218	0xbe916413	-0.28396663
219	0xbe54f6ee	-0.20797321
220	0xbd2f18fd	-0.04274844
221	0xbe76e62c	-0.24111241
222	0xbd22206f	-0.039581712
223	0xbec4962c	-0.38395822
224	0xbee60aea	-0.44930202
225	0xbefd234e	-0.49440998
226	0xbeb39e61	-0.3508177
227	0xbeab370d	-0.33440438
228	0xbf204168	-0.625998
229	0x3d8d40e6	0.06897144
230	0xbd4535d0	-0.048147023
231	0xbe6e6f76	-0.23284706
232	0xbe324840	-0.17410374
233	0xbe1e11de	-0.15436503
234	0xbf0b1685	-0.5433124
235	0xbcb461df	-0.022019325
236	0x3d38116b	0.044938486
237	0xbe52f738	-0.20602119
238	0xbe182a7a	-0.14859954
239	0xbe843989	-0.25825146
240	0xbdec98e9	-0.11552603
241	0xbdd15538	-0.10221332
242	0xbdd5a9bb	-0.10432764
243	0xbe071a02	-0.13193515
244	0xbe3af1a9	-0.18256249
245	0xbebaf140	-0.36512184
246	0xbdfeb936	-0.1243767
247	0xbe92c60b	-0.2866672
248	0xbda27e78	-0.07934278
249	0xbec502a2	-0.3847857
250	0xbe9908e8	-0.29889607
251	0x3d981d40	0.07427454
252	0x3cdd957c	0.027048819
253	0xbcca2636	-0.024676424
254	0xbcd795bc	-0.026316516
255	0xbd40aec4	-0.04704167
